{"format": "layers-model", "generatedBy": "keras v2.2.4-tf", "convertedBy": "TensorFlow.js Converter v4.22.0", "modelTopology": {"keras_version": "2.2.4-tf", "backend": "tensorflow", "model_config": {"class_name": "Sequential", "config": {"name": "attractiveNet_mnv2", "layers": [{"class_name": "Model", "config": {"name": "mobilenetv2_1.00_224", "layers": [{"name": "input_1", "class_name": "InputLayer", "config": {"batch_input_shape": [null, null, null, 3], "dtype": "float32", "sparse": false, "ragged": false, "name": "input_1"}, "inbound_nodes": []}, {"name": "Conv1_pad", "class_name": "ZeroPadding2D", "config": {"name": "Conv1_pad", "trainable": true, "dtype": "float32", "padding": [[0, 1], [0, 1]], "data_format": "channels_last"}, "inbound_nodes": [[["input_1", 0, 0, {}]]]}, {"name": "Conv1", "class_name": "Conv2D", "config": {"name": "Conv1", "trainable": true, "dtype": "float32", "filters": 32, "kernel_size": [3, 3], "strides": [2, 2], "padding": "valid", "data_format": "channels_last", "dilation_rate": [1, 1], "activation": "linear", "use_bias": false, "kernel_initializer": {"class_name": "GlorotUniform", "config": {"seed": null, "dtype": "float32"}}, "bias_initializer": {"class_name": "Zeros", "config": {"dtype": "float32"}}, "kernel_regularizer": null, "bias_regularizer": null, "activity_regularizer": null, "kernel_constraint": null, "bias_constraint": null}, "inbound_nodes": [[["Conv1_pad", 0, 0, {}]]]}, {"name": "bn_Conv1", "class_name": "BatchNormalization", "config": {"name": "bn_Conv1", "trainable": true, "dtype": "float32", "axis": [3], "momentum": 0.999, "epsilon": 0.001, "center": true, "scale": true, "beta_initializer": {"class_name": "Zeros", "config": {"dtype": "float32"}}, "gamma_initializer": {"class_name": "Ones", "config": {"dtype": "float32"}}, "moving_mean_initializer": {"class_name": "Zeros", "config": {"dtype": "float32"}}, "moving_variance_initializer": {"class_name": "Ones", "config": {"dtype": "float32"}}, "beta_regularizer": null, "gamma_regularizer": null, "beta_constraint": null, "gamma_constraint": null}, "inbound_nodes": [[["Conv1", 0, 0, {}]]]}, {"name": "Conv1_relu", "class_name": "ReLU", "config": {"name": "Conv1_relu", "trainable": true, "dtype": "float32", "max_value": 6.0, "negative_slope": 0.0, "threshold": 0.0}, "inbound_nodes": [[["bn_Conv1", 0, 0, {}]]]}, {"name": "expanded_conv_depthwise", "class_name": "DepthwiseConv2D", "config": {"name": "expanded_conv_depthwise", "trainable": true, "dtype": "float32", "kernel_size": [3, 3], "strides": [1, 1], "padding": "same", "data_format": "channels_last", "dilation_rate": [1, 1], "activation": "linear", "use_bias": false, "bias_initializer": {"class_name": "Zeros", "config": {"dtype": "float32"}}, "bias_regularizer": null, "activity_regularizer": null, "bias_constraint": null, "depth_multiplier": 1, "depthwise_initializer": {"class_name": "GlorotUniform", "config": {"seed": null, "dtype": "float32"}}, "depthwise_regularizer": null, "depthwise_constraint": null}, "inbound_nodes": [[["Conv1_relu", 0, 0, {}]]]}, {"name": "expanded_conv_depthwise_BN", "class_name": "BatchNormalization", "config": {"name": "expanded_conv_depthwise_BN", "trainable": true, "dtype": "float32", "axis": [3], "momentum": 0.999, "epsilon": 0.001, "center": true, "scale": true, "beta_initializer": {"class_name": "Zeros", "config": {"dtype": "float32"}}, "gamma_initializer": {"class_name": "Ones", "config": {"dtype": "float32"}}, "moving_mean_initializer": {"class_name": "Zeros", "config": {"dtype": "float32"}}, "moving_variance_initializer": {"class_name": "Ones", "config": {"dtype": "float32"}}, "beta_regularizer": null, "gamma_regularizer": null, "beta_constraint": null, "gamma_constraint": null}, "inbound_nodes": [[["expanded_conv_depthwise", 0, 0, {}]]]}, {"name": "expanded_conv_depthwise_relu", "class_name": "ReLU", "config": {"name": "expanded_conv_depthwise_relu", "trainable": true, "dtype": "float32", "max_value": 6.0, "negative_slope": 0.0, "threshold": 0.0}, "inbound_nodes": [[["expanded_conv_depthwise_BN", 0, 0, {}]]]}, {"name": "expanded_conv_project", "class_name": "Conv2D", "config": {"name": "expanded_conv_project", "trainable": true, "dtype": "float32", "filters": 16, "kernel_size": [1, 1], "strides": [1, 1], "padding": "same", "data_format": "channels_last", "dilation_rate": [1, 1], "activation": "linear", "use_bias": false, "kernel_initializer": {"class_name": "GlorotUniform", "config": {"seed": null, "dtype": "float32"}}, "bias_initializer": {"class_name": "Zeros", "config": {"dtype": "float32"}}, "kernel_regularizer": null, "bias_regularizer": null, "activity_regularizer": null, "kernel_constraint": null, "bias_constraint": null}, "inbound_nodes": [[["expanded_conv_depthwise_relu", 0, 0, {}]]]}, {"name": "expanded_conv_project_BN", "class_name": "BatchNormalization", "config": {"name": "expanded_conv_project_BN", "trainable": true, "dtype": "float32", "axis": [3], "momentum": 0.999, "epsilon": 0.001, "center": true, "scale": true, "beta_initializer": {"class_name": "Zeros", "config": {"dtype": "float32"}}, "gamma_initializer": {"class_name": "Ones", "config": {"dtype": "float32"}}, "moving_mean_initializer": {"class_name": "Zeros", "config": {"dtype": "float32"}}, "moving_variance_initializer": {"class_name": "Ones", "config": {"dtype": "float32"}}, "beta_regularizer": null, "gamma_regularizer": null, "beta_constraint": null, "gamma_constraint": null}, "inbound_nodes": [[["expanded_conv_project", 0, 0, {}]]]}, {"name": "block_1_expand", "class_name": "Conv2D", "config": {"name": "block_1_expand", "trainable": true, "dtype": "float32", "filters": 96, "kernel_size": [1, 1], "strides": [1, 1], "padding": "same", "data_format": "channels_last", "dilation_rate": [1, 1], "activation": "linear", "use_bias": false, "kernel_initializer": {"class_name": "GlorotUniform", "config": {"seed": null, "dtype": "float32"}}, "bias_initializer": {"class_name": "Zeros", "config": {"dtype": "float32"}}, "kernel_regularizer": null, "bias_regularizer": null, "activity_regularizer": null, "kernel_constraint": null, "bias_constraint": null}, "inbound_nodes": [[["expanded_conv_project_BN", 0, 0, {}]]]}, {"name": "block_1_expand_BN", "class_name": "BatchNormalization", "config": {"name": "block_1_expand_BN", "trainable": true, "dtype": "float32", "axis": [3], "momentum": 0.999, "epsilon": 0.001, "center": true, "scale": true, "beta_initializer": {"class_name": "Zeros", "config": {"dtype": "float32"}}, "gamma_initializer": {"class_name": "Ones", "config": {"dtype": "float32"}}, "moving_mean_initializer": {"class_name": "Zeros", "config": {"dtype": "float32"}}, "moving_variance_initializer": {"class_name": "Ones", "config": {"dtype": "float32"}}, "beta_regularizer": null, "gamma_regularizer": null, "beta_constraint": null, "gamma_constraint": null}, "inbound_nodes": [[["block_1_expand", 0, 0, {}]]]}, {"name": "block_1_expand_relu", "class_name": "ReLU", "config": {"name": "block_1_expand_relu", "trainable": true, "dtype": "float32", "max_value": 6.0, "negative_slope": 0.0, "threshold": 0.0}, "inbound_nodes": [[["block_1_expand_BN", 0, 0, {}]]]}, {"name": "block_1_pad", "class_name": "ZeroPadding2D", "config": {"name": "block_1_pad", "trainable": true, "dtype": "float32", "padding": [[0, 1], [0, 1]], "data_format": "channels_last"}, "inbound_nodes": [[["block_1_expand_relu", 0, 0, {}]]]}, {"name": "block_1_depthwise", "class_name": "DepthwiseConv2D", "config": {"name": "block_1_depthwise", "trainable": true, "dtype": "float32", "kernel_size": [3, 3], "strides": [2, 2], "padding": "valid", "data_format": "channels_last", "dilation_rate": [1, 1], "activation": "linear", "use_bias": false, "bias_initializer": {"class_name": "Zeros", "config": {"dtype": "float32"}}, "bias_regularizer": null, "activity_regularizer": null, "bias_constraint": null, "depth_multiplier": 1, "depthwise_initializer": {"class_name": "GlorotUniform", "config": {"seed": null, "dtype": "float32"}}, "depthwise_regularizer": null, "depthwise_constraint": null}, "inbound_nodes": [[["block_1_pad", 0, 0, {}]]]}, {"name": "block_1_depthwise_BN", "class_name": "BatchNormalization", "config": {"name": "block_1_depthwise_BN", "trainable": true, "dtype": "float32", "axis": [3], "momentum": 0.999, "epsilon": 0.001, "center": true, "scale": true, "beta_initializer": {"class_name": "Zeros", "config": {"dtype": "float32"}}, "gamma_initializer": {"class_name": "Ones", "config": {"dtype": "float32"}}, "moving_mean_initializer": {"class_name": "Zeros", "config": {"dtype": "float32"}}, "moving_variance_initializer": {"class_name": "Ones", "config": {"dtype": "float32"}}, "beta_regularizer": null, "gamma_regularizer": null, "beta_constraint": null, "gamma_constraint": null}, "inbound_nodes": [[["block_1_depthwise", 0, 0, {}]]]}, {"name": "block_1_depthwise_relu", "class_name": "ReLU", "config": {"name": "block_1_depthwise_relu", "trainable": true, "dtype": "float32", "max_value": 6.0, "negative_slope": 0.0, "threshold": 0.0}, "inbound_nodes": [[["block_1_depthwise_BN", 0, 0, {}]]]}, {"name": "block_1_project", "class_name": "Conv2D", "config": {"name": "block_1_project", "trainable": true, "dtype": "float32", "filters": 24, "kernel_size": [1, 1], "strides": [1, 1], "padding": "same", "data_format": "channels_last", "dilation_rate": [1, 1], "activation": "linear", "use_bias": false, "kernel_initializer": {"class_name": "GlorotUniform", "config": {"seed": null, "dtype": "float32"}}, "bias_initializer": {"class_name": "Zeros", "config": {"dtype": "float32"}}, "kernel_regularizer": null, "bias_regularizer": null, "activity_regularizer": null, "kernel_constraint": null, "bias_constraint": null}, "inbound_nodes": [[["block_1_depthwise_relu", 0, 0, {}]]]}, {"name": "block_1_project_BN", "class_name": "BatchNormalization", "config": {"name": "block_1_project_BN", "trainable": true, "dtype": "float32", "axis": [3], "momentum": 0.999, "epsilon": 0.001, "center": true, "scale": true, "beta_initializer": {"class_name": "Zeros", "config": {"dtype": "float32"}}, "gamma_initializer": {"class_name": "Ones", "config": {"dtype": "float32"}}, "moving_mean_initializer": {"class_name": "Zeros", "config": {"dtype": "float32"}}, "moving_variance_initializer": {"class_name": "Ones", "config": {"dtype": "float32"}}, "beta_regularizer": null, "gamma_regularizer": null, "beta_constraint": null, "gamma_constraint": null}, "inbound_nodes": [[["block_1_project", 0, 0, {}]]]}, {"name": "block_2_expand", "class_name": "Conv2D", "config": {"name": "block_2_expand", "trainable": true, "dtype": "float32", "filters": 144, "kernel_size": [1, 1], "strides": [1, 1], "padding": "same", "data_format": "channels_last", "dilation_rate": [1, 1], "activation": "linear", "use_bias": false, "kernel_initializer": {"class_name": "GlorotUniform", "config": {"seed": null, "dtype": "float32"}}, "bias_initializer": {"class_name": "Zeros", "config": {"dtype": "float32"}}, "kernel_regularizer": null, "bias_regularizer": null, "activity_regularizer": null, "kernel_constraint": null, "bias_constraint": null}, "inbound_nodes": [[["block_1_project_BN", 0, 0, {}]]]}, {"name": "block_2_expand_BN", "class_name": "BatchNormalization", "config": {"name": "block_2_expand_BN", "trainable": true, "dtype": "float32", "axis": [3], "momentum": 0.999, "epsilon": 0.001, "center": true, "scale": true, "beta_initializer": {"class_name": "Zeros", "config": {"dtype": "float32"}}, "gamma_initializer": {"class_name": "Ones", "config": {"dtype": "float32"}}, "moving_mean_initializer": {"class_name": "Zeros", "config": {"dtype": "float32"}}, "moving_variance_initializer": {"class_name": "Ones", "config": {"dtype": "float32"}}, "beta_regularizer": null, "gamma_regularizer": null, "beta_constraint": null, "gamma_constraint": null}, "inbound_nodes": [[["block_2_expand", 0, 0, {}]]]}, {"name": "block_2_expand_relu", "class_name": "ReLU", "config": {"name": "block_2_expand_relu", "trainable": true, "dtype": "float32", "max_value": 6.0, "negative_slope": 0.0, "threshold": 0.0}, "inbound_nodes": [[["block_2_expand_BN", 0, 0, {}]]]}, {"name": "block_2_depthwise", "class_name": "DepthwiseConv2D", "config": {"name": "block_2_depthwise", "trainable": true, "dtype": "float32", "kernel_size": [3, 3], "strides": [1, 1], "padding": "same", "data_format": "channels_last", "dilation_rate": [1, 1], "activation": "linear", "use_bias": false, "bias_initializer": {"class_name": "Zeros", "config": {"dtype": "float32"}}, "bias_regularizer": null, "activity_regularizer": null, "bias_constraint": null, "depth_multiplier": 1, "depthwise_initializer": {"class_name": "GlorotUniform", "config": {"seed": null, "dtype": "float32"}}, "depthwise_regularizer": null, "depthwise_constraint": null}, "inbound_nodes": [[["block_2_expand_relu", 0, 0, {}]]]}, {"name": "block_2_depthwise_BN", "class_name": "BatchNormalization", "config": {"name": "block_2_depthwise_BN", "trainable": true, "dtype": "float32", "axis": [3], "momentum": 0.999, "epsilon": 0.001, "center": true, "scale": true, "beta_initializer": {"class_name": "Zeros", "config": {"dtype": "float32"}}, "gamma_initializer": {"class_name": "Ones", "config": {"dtype": "float32"}}, "moving_mean_initializer": {"class_name": "Zeros", "config": {"dtype": "float32"}}, "moving_variance_initializer": {"class_name": "Ones", "config": {"dtype": "float32"}}, "beta_regularizer": null, "gamma_regularizer": null, "beta_constraint": null, "gamma_constraint": null}, "inbound_nodes": [[["block_2_depthwise", 0, 0, {}]]]}, {"name": "block_2_depthwise_relu", "class_name": "ReLU", "config": {"name": "block_2_depthwise_relu", "trainable": true, "dtype": "float32", "max_value": 6.0, "negative_slope": 0.0, "threshold": 0.0}, "inbound_nodes": [[["block_2_depthwise_BN", 0, 0, {}]]]}, {"name": "block_2_project", "class_name": "Conv2D", "config": {"name": "block_2_project", "trainable": true, "dtype": "float32", "filters": 24, "kernel_size": [1, 1], "strides": [1, 1], "padding": "same", "data_format": "channels_last", "dilation_rate": [1, 1], "activation": "linear", "use_bias": false, "kernel_initializer": {"class_name": "GlorotUniform", "config": {"seed": null, "dtype": "float32"}}, "bias_initializer": {"class_name": "Zeros", "config": {"dtype": "float32"}}, "kernel_regularizer": null, "bias_regularizer": null, "activity_regularizer": null, "kernel_constraint": null, "bias_constraint": null}, "inbound_nodes": [[["block_2_depthwise_relu", 0, 0, {}]]]}, {"name": "block_2_project_BN", "class_name": "BatchNormalization", "config": {"name": "block_2_project_BN", "trainable": true, "dtype": "float32", "axis": [3], "momentum": 0.999, "epsilon": 0.001, "center": true, "scale": true, "beta_initializer": {"class_name": "Zeros", "config": {"dtype": "float32"}}, "gamma_initializer": {"class_name": "Ones", "config": {"dtype": "float32"}}, "moving_mean_initializer": {"class_name": "Zeros", "config": {"dtype": "float32"}}, "moving_variance_initializer": {"class_name": "Ones", "config": {"dtype": "float32"}}, "beta_regularizer": null, "gamma_regularizer": null, "beta_constraint": null, "gamma_constraint": null}, "inbound_nodes": [[["block_2_project", 0, 0, {}]]]}, {"name": "block_2_add", "class_name": "Add", "config": {"name": "block_2_add", "trainable": true, "dtype": "float32"}, "inbound_nodes": [[["block_1_project_BN", 0, 0, {}], ["block_2_project_BN", 0, 0, {}]]]}, {"name": "block_3_expand", "class_name": "Conv2D", "config": {"name": "block_3_expand", "trainable": true, "dtype": "float32", "filters": 144, "kernel_size": [1, 1], "strides": [1, 1], "padding": "same", "data_format": "channels_last", "dilation_rate": [1, 1], "activation": "linear", "use_bias": false, "kernel_initializer": {"class_name": "GlorotUniform", "config": {"seed": null, "dtype": "float32"}}, "bias_initializer": {"class_name": "Zeros", "config": {"dtype": "float32"}}, "kernel_regularizer": null, "bias_regularizer": null, "activity_regularizer": null, "kernel_constraint": null, "bias_constraint": null}, "inbound_nodes": [[["block_2_add", 0, 0, {}]]]}, {"name": "block_3_expand_BN", "class_name": "BatchNormalization", "config": {"name": "block_3_expand_BN", "trainable": true, "dtype": "float32", "axis": [3], "momentum": 0.999, "epsilon": 0.001, "center": true, "scale": true, "beta_initializer": {"class_name": "Zeros", "config": {"dtype": "float32"}}, "gamma_initializer": {"class_name": "Ones", "config": {"dtype": "float32"}}, "moving_mean_initializer": {"class_name": "Zeros", "config": {"dtype": "float32"}}, "moving_variance_initializer": {"class_name": "Ones", "config": {"dtype": "float32"}}, "beta_regularizer": null, "gamma_regularizer": null, "beta_constraint": null, "gamma_constraint": null}, "inbound_nodes": [[["block_3_expand", 0, 0, {}]]]}, {"name": "block_3_expand_relu", "class_name": "ReLU", "config": {"name": "block_3_expand_relu", "trainable": true, "dtype": "float32", "max_value": 6.0, "negative_slope": 0.0, "threshold": 0.0}, "inbound_nodes": [[["block_3_expand_BN", 0, 0, {}]]]}, {"name": "block_3_pad", "class_name": "ZeroPadding2D", "config": {"name": "block_3_pad", "trainable": true, "dtype": "float32", "padding": [[0, 1], [0, 1]], "data_format": "channels_last"}, "inbound_nodes": [[["block_3_expand_relu", 0, 0, {}]]]}, {"name": "block_3_depthwise", "class_name": "DepthwiseConv2D", "config": {"name": "block_3_depthwise", "trainable": true, "dtype": "float32", "kernel_size": [3, 3], "strides": [2, 2], "padding": "valid", "data_format": "channels_last", "dilation_rate": [1, 1], "activation": "linear", "use_bias": false, "bias_initializer": {"class_name": "Zeros", "config": {"dtype": "float32"}}, "bias_regularizer": null, "activity_regularizer": null, "bias_constraint": null, "depth_multiplier": 1, "depthwise_initializer": {"class_name": "GlorotUniform", "config": {"seed": null, "dtype": "float32"}}, "depthwise_regularizer": null, "depthwise_constraint": null}, "inbound_nodes": [[["block_3_pad", 0, 0, {}]]]}, {"name": "block_3_depthwise_BN", "class_name": "BatchNormalization", "config": {"name": "block_3_depthwise_BN", "trainable": true, "dtype": "float32", "axis": [3], "momentum": 0.999, "epsilon": 0.001, "center": true, "scale": true, "beta_initializer": {"class_name": "Zeros", "config": {"dtype": "float32"}}, "gamma_initializer": {"class_name": "Ones", "config": {"dtype": "float32"}}, "moving_mean_initializer": {"class_name": "Zeros", "config": {"dtype": "float32"}}, "moving_variance_initializer": {"class_name": "Ones", "config": {"dtype": "float32"}}, "beta_regularizer": null, "gamma_regularizer": null, "beta_constraint": null, "gamma_constraint": null}, "inbound_nodes": [[["block_3_depthwise", 0, 0, {}]]]}, {"name": "block_3_depthwise_relu", "class_name": "ReLU", "config": {"name": "block_3_depthwise_relu", "trainable": true, "dtype": "float32", "max_value": 6.0, "negative_slope": 0.0, "threshold": 0.0}, "inbound_nodes": [[["block_3_depthwise_BN", 0, 0, {}]]]}, {"name": "block_3_project", "class_name": "Conv2D", "config": {"name": "block_3_project", "trainable": true, "dtype": "float32", "filters": 32, "kernel_size": [1, 1], "strides": [1, 1], "padding": "same", "data_format": "channels_last", "dilation_rate": [1, 1], "activation": "linear", "use_bias": false, "kernel_initializer": {"class_name": "GlorotUniform", "config": {"seed": null, "dtype": "float32"}}, "bias_initializer": {"class_name": "Zeros", "config": {"dtype": "float32"}}, "kernel_regularizer": null, "bias_regularizer": null, "activity_regularizer": null, "kernel_constraint": null, "bias_constraint": null}, "inbound_nodes": [[["block_3_depthwise_relu", 0, 0, {}]]]}, {"name": "block_3_project_BN", "class_name": "BatchNormalization", "config": {"name": "block_3_project_BN", "trainable": true, "dtype": "float32", "axis": [3], "momentum": 0.999, "epsilon": 0.001, "center": true, "scale": true, "beta_initializer": {"class_name": "Zeros", "config": {"dtype": "float32"}}, "gamma_initializer": {"class_name": "Ones", "config": {"dtype": "float32"}}, "moving_mean_initializer": {"class_name": "Zeros", "config": {"dtype": "float32"}}, "moving_variance_initializer": {"class_name": "Ones", "config": {"dtype": "float32"}}, "beta_regularizer": null, "gamma_regularizer": null, "beta_constraint": null, "gamma_constraint": null}, "inbound_nodes": [[["block_3_project", 0, 0, {}]]]}, {"name": "block_4_expand", "class_name": "Conv2D", "config": {"name": "block_4_expand", "trainable": true, "dtype": "float32", "filters": 192, "kernel_size": [1, 1], "strides": [1, 1], "padding": "same", "data_format": "channels_last", "dilation_rate": [1, 1], "activation": "linear", "use_bias": false, "kernel_initializer": {"class_name": "GlorotUniform", "config": {"seed": null, "dtype": "float32"}}, "bias_initializer": {"class_name": "Zeros", "config": {"dtype": "float32"}}, "kernel_regularizer": null, "bias_regularizer": null, "activity_regularizer": null, "kernel_constraint": null, "bias_constraint": null}, "inbound_nodes": [[["block_3_project_BN", 0, 0, {}]]]}, {"name": "block_4_expand_BN", "class_name": "BatchNormalization", "config": {"name": "block_4_expand_BN", "trainable": true, "dtype": "float32", "axis": [3], "momentum": 0.999, "epsilon": 0.001, "center": true, "scale": true, "beta_initializer": {"class_name": "Zeros", "config": {"dtype": "float32"}}, "gamma_initializer": {"class_name": "Ones", "config": {"dtype": "float32"}}, "moving_mean_initializer": {"class_name": "Zeros", "config": {"dtype": "float32"}}, "moving_variance_initializer": {"class_name": "Ones", "config": {"dtype": "float32"}}, "beta_regularizer": null, "gamma_regularizer": null, "beta_constraint": null, "gamma_constraint": null}, "inbound_nodes": [[["block_4_expand", 0, 0, {}]]]}, {"name": "block_4_expand_relu", "class_name": "ReLU", "config": {"name": "block_4_expand_relu", "trainable": true, "dtype": "float32", "max_value": 6.0, "negative_slope": 0.0, "threshold": 0.0}, "inbound_nodes": [[["block_4_expand_BN", 0, 0, {}]]]}, {"name": "block_4_depthwise", "class_name": "DepthwiseConv2D", "config": {"name": "block_4_depthwise", "trainable": true, "dtype": "float32", "kernel_size": [3, 3], "strides": [1, 1], "padding": "same", "data_format": "channels_last", "dilation_rate": [1, 1], "activation": "linear", "use_bias": false, "bias_initializer": {"class_name": "Zeros", "config": {"dtype": "float32"}}, "bias_regularizer": null, "activity_regularizer": null, "bias_constraint": null, "depth_multiplier": 1, "depthwise_initializer": {"class_name": "GlorotUniform", "config": {"seed": null, "dtype": "float32"}}, "depthwise_regularizer": null, "depthwise_constraint": null}, "inbound_nodes": [[["block_4_expand_relu", 0, 0, {}]]]}, {"name": "block_4_depthwise_BN", "class_name": "BatchNormalization", "config": {"name": "block_4_depthwise_BN", "trainable": true, "dtype": "float32", "axis": [3], "momentum": 0.999, "epsilon": 0.001, "center": true, "scale": true, "beta_initializer": {"class_name": "Zeros", "config": {"dtype": "float32"}}, "gamma_initializer": {"class_name": "Ones", "config": {"dtype": "float32"}}, "moving_mean_initializer": {"class_name": "Zeros", "config": {"dtype": "float32"}}, "moving_variance_initializer": {"class_name": "Ones", "config": {"dtype": "float32"}}, "beta_regularizer": null, "gamma_regularizer": null, "beta_constraint": null, "gamma_constraint": null}, "inbound_nodes": [[["block_4_depthwise", 0, 0, {}]]]}, {"name": "block_4_depthwise_relu", "class_name": "ReLU", "config": {"name": "block_4_depthwise_relu", "trainable": true, "dtype": "float32", "max_value": 6.0, "negative_slope": 0.0, "threshold": 0.0}, "inbound_nodes": [[["block_4_depthwise_BN", 0, 0, {}]]]}, {"name": "block_4_project", "class_name": "Conv2D", "config": {"name": "block_4_project", "trainable": true, "dtype": "float32", "filters": 32, "kernel_size": [1, 1], "strides": [1, 1], "padding": "same", "data_format": "channels_last", "dilation_rate": [1, 1], "activation": "linear", "use_bias": false, "kernel_initializer": {"class_name": "GlorotUniform", "config": {"seed": null, "dtype": "float32"}}, "bias_initializer": {"class_name": "Zeros", "config": {"dtype": "float32"}}, "kernel_regularizer": null, "bias_regularizer": null, "activity_regularizer": null, "kernel_constraint": null, "bias_constraint": null}, "inbound_nodes": [[["block_4_depthwise_relu", 0, 0, {}]]]}, {"name": "block_4_project_BN", "class_name": "BatchNormalization", "config": {"name": "block_4_project_BN", "trainable": true, "dtype": "float32", "axis": [3], "momentum": 0.999, "epsilon": 0.001, "center": true, "scale": true, "beta_initializer": {"class_name": "Zeros", "config": {"dtype": "float32"}}, "gamma_initializer": {"class_name": "Ones", "config": {"dtype": "float32"}}, "moving_mean_initializer": {"class_name": "Zeros", "config": {"dtype": "float32"}}, "moving_variance_initializer": {"class_name": "Ones", "config": {"dtype": "float32"}}, "beta_regularizer": null, "gamma_regularizer": null, "beta_constraint": null, "gamma_constraint": null}, "inbound_nodes": [[["block_4_project", 0, 0, {}]]]}, {"name": "block_4_add", "class_name": "Add", "config": {"name": "block_4_add", "trainable": true, "dtype": "float32"}, "inbound_nodes": [[["block_3_project_BN", 0, 0, {}], ["block_4_project_BN", 0, 0, {}]]]}, {"name": "block_5_expand", "class_name": "Conv2D", "config": {"name": "block_5_expand", "trainable": true, "dtype": "float32", "filters": 192, "kernel_size": [1, 1], "strides": [1, 1], "padding": "same", "data_format": "channels_last", "dilation_rate": [1, 1], "activation": "linear", "use_bias": false, "kernel_initializer": {"class_name": "GlorotUniform", "config": {"seed": null, "dtype": "float32"}}, "bias_initializer": {"class_name": "Zeros", "config": {"dtype": "float32"}}, "kernel_regularizer": null, "bias_regularizer": null, "activity_regularizer": null, "kernel_constraint": null, "bias_constraint": null}, "inbound_nodes": [[["block_4_add", 0, 0, {}]]]}, {"name": "block_5_expand_BN", "class_name": "BatchNormalization", "config": {"name": "block_5_expand_BN", "trainable": true, "dtype": "float32", "axis": [3], "momentum": 0.999, "epsilon": 0.001, "center": true, "scale": true, "beta_initializer": {"class_name": "Zeros", "config": {"dtype": "float32"}}, "gamma_initializer": {"class_name": "Ones", "config": {"dtype": "float32"}}, "moving_mean_initializer": {"class_name": "Zeros", "config": {"dtype": "float32"}}, "moving_variance_initializer": {"class_name": "Ones", "config": {"dtype": "float32"}}, "beta_regularizer": null, "gamma_regularizer": null, "beta_constraint": null, "gamma_constraint": null}, "inbound_nodes": [[["block_5_expand", 0, 0, {}]]]}, {"name": "block_5_expand_relu", "class_name": "ReLU", "config": {"name": "block_5_expand_relu", "trainable": true, "dtype": "float32", "max_value": 6.0, "negative_slope": 0.0, "threshold": 0.0}, "inbound_nodes": [[["block_5_expand_BN", 0, 0, {}]]]}, {"name": "block_5_depthwise", "class_name": "DepthwiseConv2D", "config": {"name": "block_5_depthwise", "trainable": true, "dtype": "float32", "kernel_size": [3, 3], "strides": [1, 1], "padding": "same", "data_format": "channels_last", "dilation_rate": [1, 1], "activation": "linear", "use_bias": false, "bias_initializer": {"class_name": "Zeros", "config": {"dtype": "float32"}}, "bias_regularizer": null, "activity_regularizer": null, "bias_constraint": null, "depth_multiplier": 1, "depthwise_initializer": {"class_name": "GlorotUniform", "config": {"seed": null, "dtype": "float32"}}, "depthwise_regularizer": null, "depthwise_constraint": null}, "inbound_nodes": [[["block_5_expand_relu", 0, 0, {}]]]}, {"name": "block_5_depthwise_BN", "class_name": "BatchNormalization", "config": {"name": "block_5_depthwise_BN", "trainable": true, "dtype": "float32", "axis": [3], "momentum": 0.999, "epsilon": 0.001, "center": true, "scale": true, "beta_initializer": {"class_name": "Zeros", "config": {"dtype": "float32"}}, "gamma_initializer": {"class_name": "Ones", "config": {"dtype": "float32"}}, "moving_mean_initializer": {"class_name": "Zeros", "config": {"dtype": "float32"}}, "moving_variance_initializer": {"class_name": "Ones", "config": {"dtype": "float32"}}, "beta_regularizer": null, "gamma_regularizer": null, "beta_constraint": null, "gamma_constraint": null}, "inbound_nodes": [[["block_5_depthwise", 0, 0, {}]]]}, {"name": "block_5_depthwise_relu", "class_name": "ReLU", "config": {"name": "block_5_depthwise_relu", "trainable": true, "dtype": "float32", "max_value": 6.0, "negative_slope": 0.0, "threshold": 0.0}, "inbound_nodes": [[["block_5_depthwise_BN", 0, 0, {}]]]}, {"name": "block_5_project", "class_name": "Conv2D", "config": {"name": "block_5_project", "trainable": true, "dtype": "float32", "filters": 32, "kernel_size": [1, 1], "strides": [1, 1], "padding": "same", "data_format": "channels_last", "dilation_rate": [1, 1], "activation": "linear", "use_bias": false, "kernel_initializer": {"class_name": "GlorotUniform", "config": {"seed": null, "dtype": "float32"}}, "bias_initializer": {"class_name": "Zeros", "config": {"dtype": "float32"}}, "kernel_regularizer": null, "bias_regularizer": null, "activity_regularizer": null, "kernel_constraint": null, "bias_constraint": null}, "inbound_nodes": [[["block_5_depthwise_relu", 0, 0, {}]]]}, {"name": "block_5_project_BN", "class_name": "BatchNormalization", "config": {"name": "block_5_project_BN", "trainable": true, "dtype": "float32", "axis": [3], "momentum": 0.999, "epsilon": 0.001, "center": true, "scale": true, "beta_initializer": {"class_name": "Zeros", "config": {"dtype": "float32"}}, "gamma_initializer": {"class_name": "Ones", "config": {"dtype": "float32"}}, "moving_mean_initializer": {"class_name": "Zeros", "config": {"dtype": "float32"}}, "moving_variance_initializer": {"class_name": "Ones", "config": {"dtype": "float32"}}, "beta_regularizer": null, "gamma_regularizer": null, "beta_constraint": null, "gamma_constraint": null}, "inbound_nodes": [[["block_5_project", 0, 0, {}]]]}, {"name": "block_5_add", "class_name": "Add", "config": {"name": "block_5_add", "trainable": true, "dtype": "float32"}, "inbound_nodes": [[["block_4_add", 0, 0, {}], ["block_5_project_BN", 0, 0, {}]]]}, {"name": "block_6_expand", "class_name": "Conv2D", "config": {"name": "block_6_expand", "trainable": true, "dtype": "float32", "filters": 192, "kernel_size": [1, 1], "strides": [1, 1], "padding": "same", "data_format": "channels_last", "dilation_rate": [1, 1], "activation": "linear", "use_bias": false, "kernel_initializer": {"class_name": "GlorotUniform", "config": {"seed": null, "dtype": "float32"}}, "bias_initializer": {"class_name": "Zeros", "config": {"dtype": "float32"}}, "kernel_regularizer": null, "bias_regularizer": null, "activity_regularizer": null, "kernel_constraint": null, "bias_constraint": null}, "inbound_nodes": [[["block_5_add", 0, 0, {}]]]}, {"name": "block_6_expand_BN", "class_name": "BatchNormalization", "config": {"name": "block_6_expand_BN", "trainable": true, "dtype": "float32", "axis": [3], "momentum": 0.999, "epsilon": 0.001, "center": true, "scale": true, "beta_initializer": {"class_name": "Zeros", "config": {"dtype": "float32"}}, "gamma_initializer": {"class_name": "Ones", "config": {"dtype": "float32"}}, "moving_mean_initializer": {"class_name": "Zeros", "config": {"dtype": "float32"}}, "moving_variance_initializer": {"class_name": "Ones", "config": {"dtype": "float32"}}, "beta_regularizer": null, "gamma_regularizer": null, "beta_constraint": null, "gamma_constraint": null}, "inbound_nodes": [[["block_6_expand", 0, 0, {}]]]}, {"name": "block_6_expand_relu", "class_name": "ReLU", "config": {"name": "block_6_expand_relu", "trainable": true, "dtype": "float32", "max_value": 6.0, "negative_slope": 0.0, "threshold": 0.0}, "inbound_nodes": [[["block_6_expand_BN", 0, 0, {}]]]}, {"name": "block_6_pad", "class_name": "ZeroPadding2D", "config": {"name": "block_6_pad", "trainable": true, "dtype": "float32", "padding": [[0, 1], [0, 1]], "data_format": "channels_last"}, "inbound_nodes": [[["block_6_expand_relu", 0, 0, {}]]]}, {"name": "block_6_depthwise", "class_name": "DepthwiseConv2D", "config": {"name": "block_6_depthwise", "trainable": true, "dtype": "float32", "kernel_size": [3, 3], "strides": [2, 2], "padding": "valid", "data_format": "channels_last", "dilation_rate": [1, 1], "activation": "linear", "use_bias": false, "bias_initializer": {"class_name": "Zeros", "config": {"dtype": "float32"}}, "bias_regularizer": null, "activity_regularizer": null, "bias_constraint": null, "depth_multiplier": 1, "depthwise_initializer": {"class_name": "GlorotUniform", "config": {"seed": null, "dtype": "float32"}}, "depthwise_regularizer": null, "depthwise_constraint": null}, "inbound_nodes": [[["block_6_pad", 0, 0, {}]]]}, {"name": "block_6_depthwise_BN", "class_name": "BatchNormalization", "config": {"name": "block_6_depthwise_BN", "trainable": true, "dtype": "float32", "axis": [3], "momentum": 0.999, "epsilon": 0.001, "center": true, "scale": true, "beta_initializer": {"class_name": "Zeros", "config": {"dtype": "float32"}}, "gamma_initializer": {"class_name": "Ones", "config": {"dtype": "float32"}}, "moving_mean_initializer": {"class_name": "Zeros", "config": {"dtype": "float32"}}, "moving_variance_initializer": {"class_name": "Ones", "config": {"dtype": "float32"}}, "beta_regularizer": null, "gamma_regularizer": null, "beta_constraint": null, "gamma_constraint": null}, "inbound_nodes": [[["block_6_depthwise", 0, 0, {}]]]}, {"name": "block_6_depthwise_relu", "class_name": "ReLU", "config": {"name": "block_6_depthwise_relu", "trainable": true, "dtype": "float32", "max_value": 6.0, "negative_slope": 0.0, "threshold": 0.0}, "inbound_nodes": [[["block_6_depthwise_BN", 0, 0, {}]]]}, {"name": "block_6_project", "class_name": "Conv2D", "config": {"name": "block_6_project", "trainable": true, "dtype": "float32", "filters": 64, "kernel_size": [1, 1], "strides": [1, 1], "padding": "same", "data_format": "channels_last", "dilation_rate": [1, 1], "activation": "linear", "use_bias": false, "kernel_initializer": {"class_name": "GlorotUniform", "config": {"seed": null, "dtype": "float32"}}, "bias_initializer": {"class_name": "Zeros", "config": {"dtype": "float32"}}, "kernel_regularizer": null, "bias_regularizer": null, "activity_regularizer": null, "kernel_constraint": null, "bias_constraint": null}, "inbound_nodes": [[["block_6_depthwise_relu", 0, 0, {}]]]}, {"name": "block_6_project_BN", "class_name": "BatchNormalization", "config": {"name": "block_6_project_BN", "trainable": true, "dtype": "float32", "axis": [3], "momentum": 0.999, "epsilon": 0.001, "center": true, "scale": true, "beta_initializer": {"class_name": "Zeros", "config": {"dtype": "float32"}}, "gamma_initializer": {"class_name": "Ones", "config": {"dtype": "float32"}}, "moving_mean_initializer": {"class_name": "Zeros", "config": {"dtype": "float32"}}, "moving_variance_initializer": {"class_name": "Ones", "config": {"dtype": "float32"}}, "beta_regularizer": null, "gamma_regularizer": null, "beta_constraint": null, "gamma_constraint": null}, "inbound_nodes": [[["block_6_project", 0, 0, {}]]]}, {"name": "block_7_expand", "class_name": "Conv2D", "config": {"name": "block_7_expand", "trainable": true, "dtype": "float32", "filters": 384, "kernel_size": [1, 1], "strides": [1, 1], "padding": "same", "data_format": "channels_last", "dilation_rate": [1, 1], "activation": "linear", "use_bias": false, "kernel_initializer": {"class_name": "GlorotUniform", "config": {"seed": null, "dtype": "float32"}}, "bias_initializer": {"class_name": "Zeros", "config": {"dtype": "float32"}}, "kernel_regularizer": null, "bias_regularizer": null, "activity_regularizer": null, "kernel_constraint": null, "bias_constraint": null}, "inbound_nodes": [[["block_6_project_BN", 0, 0, {}]]]}, {"name": "block_7_expand_BN", "class_name": "BatchNormalization", "config": {"name": "block_7_expand_BN", "trainable": true, "dtype": "float32", "axis": [3], "momentum": 0.999, "epsilon": 0.001, "center": true, "scale": true, "beta_initializer": {"class_name": "Zeros", "config": {"dtype": "float32"}}, "gamma_initializer": {"class_name": "Ones", "config": {"dtype": "float32"}}, "moving_mean_initializer": {"class_name": "Zeros", "config": {"dtype": "float32"}}, "moving_variance_initializer": {"class_name": "Ones", "config": {"dtype": "float32"}}, "beta_regularizer": null, "gamma_regularizer": null, "beta_constraint": null, "gamma_constraint": null}, "inbound_nodes": [[["block_7_expand", 0, 0, {}]]]}, {"name": "block_7_expand_relu", "class_name": "ReLU", "config": {"name": "block_7_expand_relu", "trainable": true, "dtype": "float32", "max_value": 6.0, "negative_slope": 0.0, "threshold": 0.0}, "inbound_nodes": [[["block_7_expand_BN", 0, 0, {}]]]}, {"name": "block_7_depthwise", "class_name": "DepthwiseConv2D", "config": {"name": "block_7_depthwise", "trainable": true, "dtype": "float32", "kernel_size": [3, 3], "strides": [1, 1], "padding": "same", "data_format": "channels_last", "dilation_rate": [1, 1], "activation": "linear", "use_bias": false, "bias_initializer": {"class_name": "Zeros", "config": {"dtype": "float32"}}, "bias_regularizer": null, "activity_regularizer": null, "bias_constraint": null, "depth_multiplier": 1, "depthwise_initializer": {"class_name": "GlorotUniform", "config": {"seed": null, "dtype": "float32"}}, "depthwise_regularizer": null, "depthwise_constraint": null}, "inbound_nodes": [[["block_7_expand_relu", 0, 0, {}]]]}, {"name": "block_7_depthwise_BN", "class_name": "BatchNormalization", "config": {"name": "block_7_depthwise_BN", "trainable": true, "dtype": "float32", "axis": [3], "momentum": 0.999, "epsilon": 0.001, "center": true, "scale": true, "beta_initializer": {"class_name": "Zeros", "config": {"dtype": "float32"}}, "gamma_initializer": {"class_name": "Ones", "config": {"dtype": "float32"}}, "moving_mean_initializer": {"class_name": "Zeros", "config": {"dtype": "float32"}}, "moving_variance_initializer": {"class_name": "Ones", "config": {"dtype": "float32"}}, "beta_regularizer": null, "gamma_regularizer": null, "beta_constraint": null, "gamma_constraint": null}, "inbound_nodes": [[["block_7_depthwise", 0, 0, {}]]]}, {"name": "block_7_depthwise_relu", "class_name": "ReLU", "config": {"name": "block_7_depthwise_relu", "trainable": true, "dtype": "float32", "max_value": 6.0, "negative_slope": 0.0, "threshold": 0.0}, "inbound_nodes": [[["block_7_depthwise_BN", 0, 0, {}]]]}, {"name": "block_7_project", "class_name": "Conv2D", "config": {"name": "block_7_project", "trainable": true, "dtype": "float32", "filters": 64, "kernel_size": [1, 1], "strides": [1, 1], "padding": "same", "data_format": "channels_last", "dilation_rate": [1, 1], "activation": "linear", "use_bias": false, "kernel_initializer": {"class_name": "GlorotUniform", "config": {"seed": null, "dtype": "float32"}}, "bias_initializer": {"class_name": "Zeros", "config": {"dtype": "float32"}}, "kernel_regularizer": null, "bias_regularizer": null, "activity_regularizer": null, "kernel_constraint": null, "bias_constraint": null}, "inbound_nodes": [[["block_7_depthwise_relu", 0, 0, {}]]]}, {"name": "block_7_project_BN", "class_name": "BatchNormalization", "config": {"name": "block_7_project_BN", "trainable": true, "dtype": "float32", "axis": [3], "momentum": 0.999, "epsilon": 0.001, "center": true, "scale": true, "beta_initializer": {"class_name": "Zeros", "config": {"dtype": "float32"}}, "gamma_initializer": {"class_name": "Ones", "config": {"dtype": "float32"}}, "moving_mean_initializer": {"class_name": "Zeros", "config": {"dtype": "float32"}}, "moving_variance_initializer": {"class_name": "Ones", "config": {"dtype": "float32"}}, "beta_regularizer": null, "gamma_regularizer": null, "beta_constraint": null, "gamma_constraint": null}, "inbound_nodes": [[["block_7_project", 0, 0, {}]]]}, {"name": "block_7_add", "class_name": "Add", "config": {"name": "block_7_add", "trainable": true, "dtype": "float32"}, "inbound_nodes": [[["block_6_project_BN", 0, 0, {}], ["block_7_project_BN", 0, 0, {}]]]}, {"name": "block_8_expand", "class_name": "Conv2D", "config": {"name": "block_8_expand", "trainable": true, "dtype": "float32", "filters": 384, "kernel_size": [1, 1], "strides": [1, 1], "padding": "same", "data_format": "channels_last", "dilation_rate": [1, 1], "activation": "linear", "use_bias": false, "kernel_initializer": {"class_name": "GlorotUniform", "config": {"seed": null, "dtype": "float32"}}, "bias_initializer": {"class_name": "Zeros", "config": {"dtype": "float32"}}, "kernel_regularizer": null, "bias_regularizer": null, "activity_regularizer": null, "kernel_constraint": null, "bias_constraint": null}, "inbound_nodes": [[["block_7_add", 0, 0, {}]]]}, {"name": "block_8_expand_BN", "class_name": "BatchNormalization", "config": {"name": "block_8_expand_BN", "trainable": true, "dtype": "float32", "axis": [3], "momentum": 0.999, "epsilon": 0.001, "center": true, "scale": true, "beta_initializer": {"class_name": "Zeros", "config": {"dtype": "float32"}}, "gamma_initializer": {"class_name": "Ones", "config": {"dtype": "float32"}}, "moving_mean_initializer": {"class_name": "Zeros", "config": {"dtype": "float32"}}, "moving_variance_initializer": {"class_name": "Ones", "config": {"dtype": "float32"}}, "beta_regularizer": null, "gamma_regularizer": null, "beta_constraint": null, "gamma_constraint": null}, "inbound_nodes": [[["block_8_expand", 0, 0, {}]]]}, {"name": "block_8_expand_relu", "class_name": "ReLU", "config": {"name": "block_8_expand_relu", "trainable": true, "dtype": "float32", "max_value": 6.0, "negative_slope": 0.0, "threshold": 0.0}, "inbound_nodes": [[["block_8_expand_BN", 0, 0, {}]]]}, {"name": "block_8_depthwise", "class_name": "DepthwiseConv2D", "config": {"name": "block_8_depthwise", "trainable": true, "dtype": "float32", "kernel_size": [3, 3], "strides": [1, 1], "padding": "same", "data_format": "channels_last", "dilation_rate": [1, 1], "activation": "linear", "use_bias": false, "bias_initializer": {"class_name": "Zeros", "config": {"dtype": "float32"}}, "bias_regularizer": null, "activity_regularizer": null, "bias_constraint": null, "depth_multiplier": 1, "depthwise_initializer": {"class_name": "GlorotUniform", "config": {"seed": null, "dtype": "float32"}}, "depthwise_regularizer": null, "depthwise_constraint": null}, "inbound_nodes": [[["block_8_expand_relu", 0, 0, {}]]]}, {"name": "block_8_depthwise_BN", "class_name": "BatchNormalization", "config": {"name": "block_8_depthwise_BN", "trainable": true, "dtype": "float32", "axis": [3], "momentum": 0.999, "epsilon": 0.001, "center": true, "scale": true, "beta_initializer": {"class_name": "Zeros", "config": {"dtype": "float32"}}, "gamma_initializer": {"class_name": "Ones", "config": {"dtype": "float32"}}, "moving_mean_initializer": {"class_name": "Zeros", "config": {"dtype": "float32"}}, "moving_variance_initializer": {"class_name": "Ones", "config": {"dtype": "float32"}}, "beta_regularizer": null, "gamma_regularizer": null, "beta_constraint": null, "gamma_constraint": null}, "inbound_nodes": [[["block_8_depthwise", 0, 0, {}]]]}, {"name": "block_8_depthwise_relu", "class_name": "ReLU", "config": {"name": "block_8_depthwise_relu", "trainable": true, "dtype": "float32", "max_value": 6.0, "negative_slope": 0.0, "threshold": 0.0}, "inbound_nodes": [[["block_8_depthwise_BN", 0, 0, {}]]]}, {"name": "block_8_project", "class_name": "Conv2D", "config": {"name": "block_8_project", "trainable": true, "dtype": "float32", "filters": 64, "kernel_size": [1, 1], "strides": [1, 1], "padding": "same", "data_format": "channels_last", "dilation_rate": [1, 1], "activation": "linear", "use_bias": false, "kernel_initializer": {"class_name": "GlorotUniform", "config": {"seed": null, "dtype": "float32"}}, "bias_initializer": {"class_name": "Zeros", "config": {"dtype": "float32"}}, "kernel_regularizer": null, "bias_regularizer": null, "activity_regularizer": null, "kernel_constraint": null, "bias_constraint": null}, "inbound_nodes": [[["block_8_depthwise_relu", 0, 0, {}]]]}, {"name": "block_8_project_BN", "class_name": "BatchNormalization", "config": {"name": "block_8_project_BN", "trainable": true, "dtype": "float32", "axis": [3], "momentum": 0.999, "epsilon": 0.001, "center": true, "scale": true, "beta_initializer": {"class_name": "Zeros", "config": {"dtype": "float32"}}, "gamma_initializer": {"class_name": "Ones", "config": {"dtype": "float32"}}, "moving_mean_initializer": {"class_name": "Zeros", "config": {"dtype": "float32"}}, "moving_variance_initializer": {"class_name": "Ones", "config": {"dtype": "float32"}}, "beta_regularizer": null, "gamma_regularizer": null, "beta_constraint": null, "gamma_constraint": null}, "inbound_nodes": [[["block_8_project", 0, 0, {}]]]}, {"name": "block_8_add", "class_name": "Add", "config": {"name": "block_8_add", "trainable": true, "dtype": "float32"}, "inbound_nodes": [[["block_7_add", 0, 0, {}], ["block_8_project_BN", 0, 0, {}]]]}, {"name": "block_9_expand", "class_name": "Conv2D", "config": {"name": "block_9_expand", "trainable": true, "dtype": "float32", "filters": 384, "kernel_size": [1, 1], "strides": [1, 1], "padding": "same", "data_format": "channels_last", "dilation_rate": [1, 1], "activation": "linear", "use_bias": false, "kernel_initializer": {"class_name": "GlorotUniform", "config": {"seed": null, "dtype": "float32"}}, "bias_initializer": {"class_name": "Zeros", "config": {"dtype": "float32"}}, "kernel_regularizer": null, "bias_regularizer": null, "activity_regularizer": null, "kernel_constraint": null, "bias_constraint": null}, "inbound_nodes": [[["block_8_add", 0, 0, {}]]]}, {"name": "block_9_expand_BN", "class_name": "BatchNormalization", "config": {"name": "block_9_expand_BN", "trainable": true, "dtype": "float32", "axis": [3], "momentum": 0.999, "epsilon": 0.001, "center": true, "scale": true, "beta_initializer": {"class_name": "Zeros", "config": {"dtype": "float32"}}, "gamma_initializer": {"class_name": "Ones", "config": {"dtype": "float32"}}, "moving_mean_initializer": {"class_name": "Zeros", "config": {"dtype": "float32"}}, "moving_variance_initializer": {"class_name": "Ones", "config": {"dtype": "float32"}}, "beta_regularizer": null, "gamma_regularizer": null, "beta_constraint": null, "gamma_constraint": null}, "inbound_nodes": [[["block_9_expand", 0, 0, {}]]]}, {"name": "block_9_expand_relu", "class_name": "ReLU", "config": {"name": "block_9_expand_relu", "trainable": true, "dtype": "float32", "max_value": 6.0, "negative_slope": 0.0, "threshold": 0.0}, "inbound_nodes": [[["block_9_expand_BN", 0, 0, {}]]]}, {"name": "block_9_depthwise", "class_name": "DepthwiseConv2D", "config": {"name": "block_9_depthwise", "trainable": true, "dtype": "float32", "kernel_size": [3, 3], "strides": [1, 1], "padding": "same", "data_format": "channels_last", "dilation_rate": [1, 1], "activation": "linear", "use_bias": false, "bias_initializer": {"class_name": "Zeros", "config": {"dtype": "float32"}}, "bias_regularizer": null, "activity_regularizer": null, "bias_constraint": null, "depth_multiplier": 1, "depthwise_initializer": {"class_name": "GlorotUniform", "config": {"seed": null, "dtype": "float32"}}, "depthwise_regularizer": null, "depthwise_constraint": null}, "inbound_nodes": [[["block_9_expand_relu", 0, 0, {}]]]}, {"name": "block_9_depthwise_BN", "class_name": "BatchNormalization", "config": {"name": "block_9_depthwise_BN", "trainable": true, "dtype": "float32", "axis": [3], "momentum": 0.999, "epsilon": 0.001, "center": true, "scale": true, "beta_initializer": {"class_name": "Zeros", "config": {"dtype": "float32"}}, "gamma_initializer": {"class_name": "Ones", "config": {"dtype": "float32"}}, "moving_mean_initializer": {"class_name": "Zeros", "config": {"dtype": "float32"}}, "moving_variance_initializer": {"class_name": "Ones", "config": {"dtype": "float32"}}, "beta_regularizer": null, "gamma_regularizer": null, "beta_constraint": null, "gamma_constraint": null}, "inbound_nodes": [[["block_9_depthwise", 0, 0, {}]]]}, {"name": "block_9_depthwise_relu", "class_name": "ReLU", "config": {"name": "block_9_depthwise_relu", "trainable": true, "dtype": "float32", "max_value": 6.0, "negative_slope": 0.0, "threshold": 0.0}, "inbound_nodes": [[["block_9_depthwise_BN", 0, 0, {}]]]}, {"name": "block_9_project", "class_name": "Conv2D", "config": {"name": "block_9_project", "trainable": true, "dtype": "float32", "filters": 64, "kernel_size": [1, 1], "strides": [1, 1], "padding": "same", "data_format": "channels_last", "dilation_rate": [1, 1], "activation": "linear", "use_bias": false, "kernel_initializer": {"class_name": "GlorotUniform", "config": {"seed": null, "dtype": "float32"}}, "bias_initializer": {"class_name": "Zeros", "config": {"dtype": "float32"}}, "kernel_regularizer": null, "bias_regularizer": null, "activity_regularizer": null, "kernel_constraint": null, "bias_constraint": null}, "inbound_nodes": [[["block_9_depthwise_relu", 0, 0, {}]]]}, {"name": "block_9_project_BN", "class_name": "BatchNormalization", "config": {"name": "block_9_project_BN", "trainable": true, "dtype": "float32", "axis": [3], "momentum": 0.999, "epsilon": 0.001, "center": true, "scale": true, "beta_initializer": {"class_name": "Zeros", "config": {"dtype": "float32"}}, "gamma_initializer": {"class_name": "Ones", "config": {"dtype": "float32"}}, "moving_mean_initializer": {"class_name": "Zeros", "config": {"dtype": "float32"}}, "moving_variance_initializer": {"class_name": "Ones", "config": {"dtype": "float32"}}, "beta_regularizer": null, "gamma_regularizer": null, "beta_constraint": null, "gamma_constraint": null}, "inbound_nodes": [[["block_9_project", 0, 0, {}]]]}, {"name": "block_9_add", "class_name": "Add", "config": {"name": "block_9_add", "trainable": true, "dtype": "float32"}, "inbound_nodes": [[["block_8_add", 0, 0, {}], ["block_9_project_BN", 0, 0, {}]]]}, {"name": "block_10_expand", "class_name": "Conv2D", "config": {"name": "block_10_expand", "trainable": true, "dtype": "float32", "filters": 384, "kernel_size": [1, 1], "strides": [1, 1], "padding": "same", "data_format": "channels_last", "dilation_rate": [1, 1], "activation": "linear", "use_bias": false, "kernel_initializer": {"class_name": "GlorotUniform", "config": {"seed": null, "dtype": "float32"}}, "bias_initializer": {"class_name": "Zeros", "config": {"dtype": "float32"}}, "kernel_regularizer": null, "bias_regularizer": null, "activity_regularizer": null, "kernel_constraint": null, "bias_constraint": null}, "inbound_nodes": [[["block_9_add", 0, 0, {}]]]}, {"name": "block_10_expand_BN", "class_name": "BatchNormalization", "config": {"name": "block_10_expand_BN", "trainable": true, "dtype": "float32", "axis": [3], "momentum": 0.999, "epsilon": 0.001, "center": true, "scale": true, "beta_initializer": {"class_name": "Zeros", "config": {"dtype": "float32"}}, "gamma_initializer": {"class_name": "Ones", "config": {"dtype": "float32"}}, "moving_mean_initializer": {"class_name": "Zeros", "config": {"dtype": "float32"}}, "moving_variance_initializer": {"class_name": "Ones", "config": {"dtype": "float32"}}, "beta_regularizer": null, "gamma_regularizer": null, "beta_constraint": null, "gamma_constraint": null}, "inbound_nodes": [[["block_10_expand", 0, 0, {}]]]}, {"name": "block_10_expand_relu", "class_name": "ReLU", "config": {"name": "block_10_expand_relu", "trainable": true, "dtype": "float32", "max_value": 6.0, "negative_slope": 0.0, "threshold": 0.0}, "inbound_nodes": [[["block_10_expand_BN", 0, 0, {}]]]}, {"name": "block_10_depthwise", "class_name": "DepthwiseConv2D", "config": {"name": "block_10_depthwise", "trainable": true, "dtype": "float32", "kernel_size": [3, 3], "strides": [1, 1], "padding": "same", "data_format": "channels_last", "dilation_rate": [1, 1], "activation": "linear", "use_bias": false, "bias_initializer": {"class_name": "Zeros", "config": {"dtype": "float32"}}, "bias_regularizer": null, "activity_regularizer": null, "bias_constraint": null, "depth_multiplier": 1, "depthwise_initializer": {"class_name": "GlorotUniform", "config": {"seed": null, "dtype": "float32"}}, "depthwise_regularizer": null, "depthwise_constraint": null}, "inbound_nodes": [[["block_10_expand_relu", 0, 0, {}]]]}, {"name": "block_10_depthwise_BN", "class_name": "BatchNormalization", "config": {"name": "block_10_depthwise_BN", "trainable": true, "dtype": "float32", "axis": [3], "momentum": 0.999, "epsilon": 0.001, "center": true, "scale": true, "beta_initializer": {"class_name": "Zeros", "config": {"dtype": "float32"}}, "gamma_initializer": {"class_name": "Ones", "config": {"dtype": "float32"}}, "moving_mean_initializer": {"class_name": "Zeros", "config": {"dtype": "float32"}}, "moving_variance_initializer": {"class_name": "Ones", "config": {"dtype": "float32"}}, "beta_regularizer": null, "gamma_regularizer": null, "beta_constraint": null, "gamma_constraint": null}, "inbound_nodes": [[["block_10_depthwise", 0, 0, {}]]]}, {"name": "block_10_depthwise_relu", "class_name": "ReLU", "config": {"name": "block_10_depthwise_relu", "trainable": true, "dtype": "float32", "max_value": 6.0, "negative_slope": 0.0, "threshold": 0.0}, "inbound_nodes": [[["block_10_depthwise_BN", 0, 0, {}]]]}, {"name": "block_10_project", "class_name": "Conv2D", "config": {"name": "block_10_project", "trainable": true, "dtype": "float32", "filters": 96, "kernel_size": [1, 1], "strides": [1, 1], "padding": "same", "data_format": "channels_last", "dilation_rate": [1, 1], "activation": "linear", "use_bias": false, "kernel_initializer": {"class_name": "GlorotUniform", "config": {"seed": null, "dtype": "float32"}}, "bias_initializer": {"class_name": "Zeros", "config": {"dtype": "float32"}}, "kernel_regularizer": null, "bias_regularizer": null, "activity_regularizer": null, "kernel_constraint": null, "bias_constraint": null}, "inbound_nodes": [[["block_10_depthwise_relu", 0, 0, {}]]]}, {"name": "block_10_project_BN", "class_name": "BatchNormalization", "config": {"name": "block_10_project_BN", "trainable": true, "dtype": "float32", "axis": [3], "momentum": 0.999, "epsilon": 0.001, "center": true, "scale": true, "beta_initializer": {"class_name": "Zeros", "config": {"dtype": "float32"}}, "gamma_initializer": {"class_name": "Ones", "config": {"dtype": "float32"}}, "moving_mean_initializer": {"class_name": "Zeros", "config": {"dtype": "float32"}}, "moving_variance_initializer": {"class_name": "Ones", "config": {"dtype": "float32"}}, "beta_regularizer": null, "gamma_regularizer": null, "beta_constraint": null, "gamma_constraint": null}, "inbound_nodes": [[["block_10_project", 0, 0, {}]]]}, {"name": "block_11_expand", "class_name": "Conv2D", "config": {"name": "block_11_expand", "trainable": true, "dtype": "float32", "filters": 576, "kernel_size": [1, 1], "strides": [1, 1], "padding": "same", "data_format": "channels_last", "dilation_rate": [1, 1], "activation": "linear", "use_bias": false, "kernel_initializer": {"class_name": "GlorotUniform", "config": {"seed": null, "dtype": "float32"}}, "bias_initializer": {"class_name": "Zeros", "config": {"dtype": "float32"}}, "kernel_regularizer": null, "bias_regularizer": null, "activity_regularizer": null, "kernel_constraint": null, "bias_constraint": null}, "inbound_nodes": [[["block_10_project_BN", 0, 0, {}]]]}, {"name": "block_11_expand_BN", "class_name": "BatchNormalization", "config": {"name": "block_11_expand_BN", "trainable": true, "dtype": "float32", "axis": [3], "momentum": 0.999, "epsilon": 0.001, "center": true, "scale": true, "beta_initializer": {"class_name": "Zeros", "config": {"dtype": "float32"}}, "gamma_initializer": {"class_name": "Ones", "config": {"dtype": "float32"}}, "moving_mean_initializer": {"class_name": "Zeros", "config": {"dtype": "float32"}}, "moving_variance_initializer": {"class_name": "Ones", "config": {"dtype": "float32"}}, "beta_regularizer": null, "gamma_regularizer": null, "beta_constraint": null, "gamma_constraint": null}, "inbound_nodes": [[["block_11_expand", 0, 0, {}]]]}, {"name": "block_11_expand_relu", "class_name": "ReLU", "config": {"name": "block_11_expand_relu", "trainable": true, "dtype": "float32", "max_value": 6.0, "negative_slope": 0.0, "threshold": 0.0}, "inbound_nodes": [[["block_11_expand_BN", 0, 0, {}]]]}, {"name": "block_11_depthwise", "class_name": "DepthwiseConv2D", "config": {"name": "block_11_depthwise", "trainable": true, "dtype": "float32", "kernel_size": [3, 3], "strides": [1, 1], "padding": "same", "data_format": "channels_last", "dilation_rate": [1, 1], "activation": "linear", "use_bias": false, "bias_initializer": {"class_name": "Zeros", "config": {"dtype": "float32"}}, "bias_regularizer": null, "activity_regularizer": null, "bias_constraint": null, "depth_multiplier": 1, "depthwise_initializer": {"class_name": "GlorotUniform", "config": {"seed": null, "dtype": "float32"}}, "depthwise_regularizer": null, "depthwise_constraint": null}, "inbound_nodes": [[["block_11_expand_relu", 0, 0, {}]]]}, {"name": "block_11_depthwise_BN", "class_name": "BatchNormalization", "config": {"name": "block_11_depthwise_BN", "trainable": true, "dtype": "float32", "axis": [3], "momentum": 0.999, "epsilon": 0.001, "center": true, "scale": true, "beta_initializer": {"class_name": "Zeros", "config": {"dtype": "float32"}}, "gamma_initializer": {"class_name": "Ones", "config": {"dtype": "float32"}}, "moving_mean_initializer": {"class_name": "Zeros", "config": {"dtype": "float32"}}, "moving_variance_initializer": {"class_name": "Ones", "config": {"dtype": "float32"}}, "beta_regularizer": null, "gamma_regularizer": null, "beta_constraint": null, "gamma_constraint": null}, "inbound_nodes": [[["block_11_depthwise", 0, 0, {}]]]}, {"name": "block_11_depthwise_relu", "class_name": "ReLU", "config": {"name": "block_11_depthwise_relu", "trainable": true, "dtype": "float32", "max_value": 6.0, "negative_slope": 0.0, "threshold": 0.0}, "inbound_nodes": [[["block_11_depthwise_BN", 0, 0, {}]]]}, {"name": "block_11_project", "class_name": "Conv2D", "config": {"name": "block_11_project", "trainable": true, "dtype": "float32", "filters": 96, "kernel_size": [1, 1], "strides": [1, 1], "padding": "same", "data_format": "channels_last", "dilation_rate": [1, 1], "activation": "linear", "use_bias": false, "kernel_initializer": {"class_name": "GlorotUniform", "config": {"seed": null, "dtype": "float32"}}, "bias_initializer": {"class_name": "Zeros", "config": {"dtype": "float32"}}, "kernel_regularizer": null, "bias_regularizer": null, "activity_regularizer": null, "kernel_constraint": null, "bias_constraint": null}, "inbound_nodes": [[["block_11_depthwise_relu", 0, 0, {}]]]}, {"name": "block_11_project_BN", "class_name": "BatchNormalization", "config": {"name": "block_11_project_BN", "trainable": true, "dtype": "float32", "axis": [3], "momentum": 0.999, "epsilon": 0.001, "center": true, "scale": true, "beta_initializer": {"class_name": "Zeros", "config": {"dtype": "float32"}}, "gamma_initializer": {"class_name": "Ones", "config": {"dtype": "float32"}}, "moving_mean_initializer": {"class_name": "Zeros", "config": {"dtype": "float32"}}, "moving_variance_initializer": {"class_name": "Ones", "config": {"dtype": "float32"}}, "beta_regularizer": null, "gamma_regularizer": null, "beta_constraint": null, "gamma_constraint": null}, "inbound_nodes": [[["block_11_project", 0, 0, {}]]]}, {"name": "block_11_add", "class_name": "Add", "config": {"name": "block_11_add", "trainable": true, "dtype": "float32"}, "inbound_nodes": [[["block_10_project_BN", 0, 0, {}], ["block_11_project_BN", 0, 0, {}]]]}, {"name": "block_12_expand", "class_name": "Conv2D", "config": {"name": "block_12_expand", "trainable": true, "dtype": "float32", "filters": 576, "kernel_size": [1, 1], "strides": [1, 1], "padding": "same", "data_format": "channels_last", "dilation_rate": [1, 1], "activation": "linear", "use_bias": false, "kernel_initializer": {"class_name": "GlorotUniform", "config": {"seed": null, "dtype": "float32"}}, "bias_initializer": {"class_name": "Zeros", "config": {"dtype": "float32"}}, "kernel_regularizer": null, "bias_regularizer": null, "activity_regularizer": null, "kernel_constraint": null, "bias_constraint": null}, "inbound_nodes": [[["block_11_add", 0, 0, {}]]]}, {"name": "block_12_expand_BN", "class_name": "BatchNormalization", "config": {"name": "block_12_expand_BN", "trainable": true, "dtype": "float32", "axis": [3], "momentum": 0.999, "epsilon": 0.001, "center": true, "scale": true, "beta_initializer": {"class_name": "Zeros", "config": {"dtype": "float32"}}, "gamma_initializer": {"class_name": "Ones", "config": {"dtype": "float32"}}, "moving_mean_initializer": {"class_name": "Zeros", "config": {"dtype": "float32"}}, "moving_variance_initializer": {"class_name": "Ones", "config": {"dtype": "float32"}}, "beta_regularizer": null, "gamma_regularizer": null, "beta_constraint": null, "gamma_constraint": null}, "inbound_nodes": [[["block_12_expand", 0, 0, {}]]]}, {"name": "block_12_expand_relu", "class_name": "ReLU", "config": {"name": "block_12_expand_relu", "trainable": true, "dtype": "float32", "max_value": 6.0, "negative_slope": 0.0, "threshold": 0.0}, "inbound_nodes": [[["block_12_expand_BN", 0, 0, {}]]]}, {"name": "block_12_depthwise", "class_name": "DepthwiseConv2D", "config": {"name": "block_12_depthwise", "trainable": true, "dtype": "float32", "kernel_size": [3, 3], "strides": [1, 1], "padding": "same", "data_format": "channels_last", "dilation_rate": [1, 1], "activation": "linear", "use_bias": false, "bias_initializer": {"class_name": "Zeros", "config": {"dtype": "float32"}}, "bias_regularizer": null, "activity_regularizer": null, "bias_constraint": null, "depth_multiplier": 1, "depthwise_initializer": {"class_name": "GlorotUniform", "config": {"seed": null, "dtype": "float32"}}, "depthwise_regularizer": null, "depthwise_constraint": null}, "inbound_nodes": [[["block_12_expand_relu", 0, 0, {}]]]}, {"name": "block_12_depthwise_BN", "class_name": "BatchNormalization", "config": {"name": "block_12_depthwise_BN", "trainable": true, "dtype": "float32", "axis": [3], "momentum": 0.999, "epsilon": 0.001, "center": true, "scale": true, "beta_initializer": {"class_name": "Zeros", "config": {"dtype": "float32"}}, "gamma_initializer": {"class_name": "Ones", "config": {"dtype": "float32"}}, "moving_mean_initializer": {"class_name": "Zeros", "config": {"dtype": "float32"}}, "moving_variance_initializer": {"class_name": "Ones", "config": {"dtype": "float32"}}, "beta_regularizer": null, "gamma_regularizer": null, "beta_constraint": null, "gamma_constraint": null}, "inbound_nodes": [[["block_12_depthwise", 0, 0, {}]]]}, {"name": "block_12_depthwise_relu", "class_name": "ReLU", "config": {"name": "block_12_depthwise_relu", "trainable": true, "dtype": "float32", "max_value": 6.0, "negative_slope": 0.0, "threshold": 0.0}, "inbound_nodes": [[["block_12_depthwise_BN", 0, 0, {}]]]}, {"name": "block_12_project", "class_name": "Conv2D", "config": {"name": "block_12_project", "trainable": true, "dtype": "float32", "filters": 96, "kernel_size": [1, 1], "strides": [1, 1], "padding": "same", "data_format": "channels_last", "dilation_rate": [1, 1], "activation": "linear", "use_bias": false, "kernel_initializer": {"class_name": "GlorotUniform", "config": {"seed": null, "dtype": "float32"}}, "bias_initializer": {"class_name": "Zeros", "config": {"dtype": "float32"}}, "kernel_regularizer": null, "bias_regularizer": null, "activity_regularizer": null, "kernel_constraint": null, "bias_constraint": null}, "inbound_nodes": [[["block_12_depthwise_relu", 0, 0, {}]]]}, {"name": "block_12_project_BN", "class_name": "BatchNormalization", "config": {"name": "block_12_project_BN", "trainable": true, "dtype": "float32", "axis": [3], "momentum": 0.999, "epsilon": 0.001, "center": true, "scale": true, "beta_initializer": {"class_name": "Zeros", "config": {"dtype": "float32"}}, "gamma_initializer": {"class_name": "Ones", "config": {"dtype": "float32"}}, "moving_mean_initializer": {"class_name": "Zeros", "config": {"dtype": "float32"}}, "moving_variance_initializer": {"class_name": "Ones", "config": {"dtype": "float32"}}, "beta_regularizer": null, "gamma_regularizer": null, "beta_constraint": null, "gamma_constraint": null}, "inbound_nodes": [[["block_12_project", 0, 0, {}]]]}, {"name": "block_12_add", "class_name": "Add", "config": {"name": "block_12_add", "trainable": true, "dtype": "float32"}, "inbound_nodes": [[["block_11_add", 0, 0, {}], ["block_12_project_BN", 0, 0, {}]]]}, {"name": "block_13_expand", "class_name": "Conv2D", "config": {"name": "block_13_expand", "trainable": true, "dtype": "float32", "filters": 576, "kernel_size": [1, 1], "strides": [1, 1], "padding": "same", "data_format": "channels_last", "dilation_rate": [1, 1], "activation": "linear", "use_bias": false, "kernel_initializer": {"class_name": "GlorotUniform", "config": {"seed": null, "dtype": "float32"}}, "bias_initializer": {"class_name": "Zeros", "config": {"dtype": "float32"}}, "kernel_regularizer": null, "bias_regularizer": null, "activity_regularizer": null, "kernel_constraint": null, "bias_constraint": null}, "inbound_nodes": [[["block_12_add", 0, 0, {}]]]}, {"name": "block_13_expand_BN", "class_name": "BatchNormalization", "config": {"name": "block_13_expand_BN", "trainable": true, "dtype": "float32", "axis": [3], "momentum": 0.999, "epsilon": 0.001, "center": true, "scale": true, "beta_initializer": {"class_name": "Zeros", "config": {"dtype": "float32"}}, "gamma_initializer": {"class_name": "Ones", "config": {"dtype": "float32"}}, "moving_mean_initializer": {"class_name": "Zeros", "config": {"dtype": "float32"}}, "moving_variance_initializer": {"class_name": "Ones", "config": {"dtype": "float32"}}, "beta_regularizer": null, "gamma_regularizer": null, "beta_constraint": null, "gamma_constraint": null}, "inbound_nodes": [[["block_13_expand", 0, 0, {}]]]}, {"name": "block_13_expand_relu", "class_name": "ReLU", "config": {"name": "block_13_expand_relu", "trainable": true, "dtype": "float32", "max_value": 6.0, "negative_slope": 0.0, "threshold": 0.0}, "inbound_nodes": [[["block_13_expand_BN", 0, 0, {}]]]}, {"name": "block_13_pad", "class_name": "ZeroPadding2D", "config": {"name": "block_13_pad", "trainable": true, "dtype": "float32", "padding": [[0, 1], [0, 1]], "data_format": "channels_last"}, "inbound_nodes": [[["block_13_expand_relu", 0, 0, {}]]]}, {"name": "block_13_depthwise", "class_name": "DepthwiseConv2D", "config": {"name": "block_13_depthwise", "trainable": true, "dtype": "float32", "kernel_size": [3, 3], "strides": [2, 2], "padding": "valid", "data_format": "channels_last", "dilation_rate": [1, 1], "activation": "linear", "use_bias": false, "bias_initializer": {"class_name": "Zeros", "config": {"dtype": "float32"}}, "bias_regularizer": null, "activity_regularizer": null, "bias_constraint": null, "depth_multiplier": 1, "depthwise_initializer": {"class_name": "GlorotUniform", "config": {"seed": null, "dtype": "float32"}}, "depthwise_regularizer": null, "depthwise_constraint": null}, "inbound_nodes": [[["block_13_pad", 0, 0, {}]]]}, {"name": "block_13_depthwise_BN", "class_name": "BatchNormalization", "config": {"name": "block_13_depthwise_BN", "trainable": true, "dtype": "float32", "axis": [3], "momentum": 0.999, "epsilon": 0.001, "center": true, "scale": true, "beta_initializer": {"class_name": "Zeros", "config": {"dtype": "float32"}}, "gamma_initializer": {"class_name": "Ones", "config": {"dtype": "float32"}}, "moving_mean_initializer": {"class_name": "Zeros", "config": {"dtype": "float32"}}, "moving_variance_initializer": {"class_name": "Ones", "config": {"dtype": "float32"}}, "beta_regularizer": null, "gamma_regularizer": null, "beta_constraint": null, "gamma_constraint": null}, "inbound_nodes": [[["block_13_depthwise", 0, 0, {}]]]}, {"name": "block_13_depthwise_relu", "class_name": "ReLU", "config": {"name": "block_13_depthwise_relu", "trainable": true, "dtype": "float32", "max_value": 6.0, "negative_slope": 0.0, "threshold": 0.0}, "inbound_nodes": [[["block_13_depthwise_BN", 0, 0, {}]]]}, {"name": "block_13_project", "class_name": "Conv2D", "config": {"name": "block_13_project", "trainable": true, "dtype": "float32", "filters": 160, "kernel_size": [1, 1], "strides": [1, 1], "padding": "same", "data_format": "channels_last", "dilation_rate": [1, 1], "activation": "linear", "use_bias": false, "kernel_initializer": {"class_name": "GlorotUniform", "config": {"seed": null, "dtype": "float32"}}, "bias_initializer": {"class_name": "Zeros", "config": {"dtype": "float32"}}, "kernel_regularizer": null, "bias_regularizer": null, "activity_regularizer": null, "kernel_constraint": null, "bias_constraint": null}, "inbound_nodes": [[["block_13_depthwise_relu", 0, 0, {}]]]}, {"name": "block_13_project_BN", "class_name": "BatchNormalization", "config": {"name": "block_13_project_BN", "trainable": true, "dtype": "float32", "axis": [3], "momentum": 0.999, "epsilon": 0.001, "center": true, "scale": true, "beta_initializer": {"class_name": "Zeros", "config": {"dtype": "float32"}}, "gamma_initializer": {"class_name": "Ones", "config": {"dtype": "float32"}}, "moving_mean_initializer": {"class_name": "Zeros", "config": {"dtype": "float32"}}, "moving_variance_initializer": {"class_name": "Ones", "config": {"dtype": "float32"}}, "beta_regularizer": null, "gamma_regularizer": null, "beta_constraint": null, "gamma_constraint": null}, "inbound_nodes": [[["block_13_project", 0, 0, {}]]]}, {"name": "block_14_expand", "class_name": "Conv2D", "config": {"name": "block_14_expand", "trainable": true, "dtype": "float32", "filters": 960, "kernel_size": [1, 1], "strides": [1, 1], "padding": "same", "data_format": "channels_last", "dilation_rate": [1, 1], "activation": "linear", "use_bias": false, "kernel_initializer": {"class_name": "GlorotUniform", "config": {"seed": null, "dtype": "float32"}}, "bias_initializer": {"class_name": "Zeros", "config": {"dtype": "float32"}}, "kernel_regularizer": null, "bias_regularizer": null, "activity_regularizer": null, "kernel_constraint": null, "bias_constraint": null}, "inbound_nodes": [[["block_13_project_BN", 0, 0, {}]]]}, {"name": "block_14_expand_BN", "class_name": "BatchNormalization", "config": {"name": "block_14_expand_BN", "trainable": true, "dtype": "float32", "axis": [3], "momentum": 0.999, "epsilon": 0.001, "center": true, "scale": true, "beta_initializer": {"class_name": "Zeros", "config": {"dtype": "float32"}}, "gamma_initializer": {"class_name": "Ones", "config": {"dtype": "float32"}}, "moving_mean_initializer": {"class_name": "Zeros", "config": {"dtype": "float32"}}, "moving_variance_initializer": {"class_name": "Ones", "config": {"dtype": "float32"}}, "beta_regularizer": null, "gamma_regularizer": null, "beta_constraint": null, "gamma_constraint": null}, "inbound_nodes": [[["block_14_expand", 0, 0, {}]]]}, {"name": "block_14_expand_relu", "class_name": "ReLU", "config": {"name": "block_14_expand_relu", "trainable": true, "dtype": "float32", "max_value": 6.0, "negative_slope": 0.0, "threshold": 0.0}, "inbound_nodes": [[["block_14_expand_BN", 0, 0, {}]]]}, {"name": "block_14_depthwise", "class_name": "DepthwiseConv2D", "config": {"name": "block_14_depthwise", "trainable": true, "dtype": "float32", "kernel_size": [3, 3], "strides": [1, 1], "padding": "same", "data_format": "channels_last", "dilation_rate": [1, 1], "activation": "linear", "use_bias": false, "bias_initializer": {"class_name": "Zeros", "config": {"dtype": "float32"}}, "bias_regularizer": null, "activity_regularizer": null, "bias_constraint": null, "depth_multiplier": 1, "depthwise_initializer": {"class_name": "GlorotUniform", "config": {"seed": null, "dtype": "float32"}}, "depthwise_regularizer": null, "depthwise_constraint": null}, "inbound_nodes": [[["block_14_expand_relu", 0, 0, {}]]]}, {"name": "block_14_depthwise_BN", "class_name": "BatchNormalization", "config": {"name": "block_14_depthwise_BN", "trainable": true, "dtype": "float32", "axis": [3], "momentum": 0.999, "epsilon": 0.001, "center": true, "scale": true, "beta_initializer": {"class_name": "Zeros", "config": {"dtype": "float32"}}, "gamma_initializer": {"class_name": "Ones", "config": {"dtype": "float32"}}, "moving_mean_initializer": {"class_name": "Zeros", "config": {"dtype": "float32"}}, "moving_variance_initializer": {"class_name": "Ones", "config": {"dtype": "float32"}}, "beta_regularizer": null, "gamma_regularizer": null, "beta_constraint": null, "gamma_constraint": null}, "inbound_nodes": [[["block_14_depthwise", 0, 0, {}]]]}, {"name": "block_14_depthwise_relu", "class_name": "ReLU", "config": {"name": "block_14_depthwise_relu", "trainable": true, "dtype": "float32", "max_value": 6.0, "negative_slope": 0.0, "threshold": 0.0}, "inbound_nodes": [[["block_14_depthwise_BN", 0, 0, {}]]]}, {"name": "block_14_project", "class_name": "Conv2D", "config": {"name": "block_14_project", "trainable": true, "dtype": "float32", "filters": 160, "kernel_size": [1, 1], "strides": [1, 1], "padding": "same", "data_format": "channels_last", "dilation_rate": [1, 1], "activation": "linear", "use_bias": false, "kernel_initializer": {"class_name": "GlorotUniform", "config": {"seed": null, "dtype": "float32"}}, "bias_initializer": {"class_name": "Zeros", "config": {"dtype": "float32"}}, "kernel_regularizer": null, "bias_regularizer": null, "activity_regularizer": null, "kernel_constraint": null, "bias_constraint": null}, "inbound_nodes": [[["block_14_depthwise_relu", 0, 0, {}]]]}, {"name": "block_14_project_BN", "class_name": "BatchNormalization", "config": {"name": "block_14_project_BN", "trainable": true, "dtype": "float32", "axis": [3], "momentum": 0.999, "epsilon": 0.001, "center": true, "scale": true, "beta_initializer": {"class_name": "Zeros", "config": {"dtype": "float32"}}, "gamma_initializer": {"class_name": "Ones", "config": {"dtype": "float32"}}, "moving_mean_initializer": {"class_name": "Zeros", "config": {"dtype": "float32"}}, "moving_variance_initializer": {"class_name": "Ones", "config": {"dtype": "float32"}}, "beta_regularizer": null, "gamma_regularizer": null, "beta_constraint": null, "gamma_constraint": null}, "inbound_nodes": [[["block_14_project", 0, 0, {}]]]}, {"name": "block_14_add", "class_name": "Add", "config": {"name": "block_14_add", "trainable": true, "dtype": "float32"}, "inbound_nodes": [[["block_13_project_BN", 0, 0, {}], ["block_14_project_BN", 0, 0, {}]]]}, {"name": "block_15_expand", "class_name": "Conv2D", "config": {"name": "block_15_expand", "trainable": true, "dtype": "float32", "filters": 960, "kernel_size": [1, 1], "strides": [1, 1], "padding": "same", "data_format": "channels_last", "dilation_rate": [1, 1], "activation": "linear", "use_bias": false, "kernel_initializer": {"class_name": "GlorotUniform", "config": {"seed": null, "dtype": "float32"}}, "bias_initializer": {"class_name": "Zeros", "config": {"dtype": "float32"}}, "kernel_regularizer": null, "bias_regularizer": null, "activity_regularizer": null, "kernel_constraint": null, "bias_constraint": null}, "inbound_nodes": [[["block_14_add", 0, 0, {}]]]}, {"name": "block_15_expand_BN", "class_name": "BatchNormalization", "config": {"name": "block_15_expand_BN", "trainable": true, "dtype": "float32", "axis": [3], "momentum": 0.999, "epsilon": 0.001, "center": true, "scale": true, "beta_initializer": {"class_name": "Zeros", "config": {"dtype": "float32"}}, "gamma_initializer": {"class_name": "Ones", "config": {"dtype": "float32"}}, "moving_mean_initializer": {"class_name": "Zeros", "config": {"dtype": "float32"}}, "moving_variance_initializer": {"class_name": "Ones", "config": {"dtype": "float32"}}, "beta_regularizer": null, "gamma_regularizer": null, "beta_constraint": null, "gamma_constraint": null}, "inbound_nodes": [[["block_15_expand", 0, 0, {}]]]}, {"name": "block_15_expand_relu", "class_name": "ReLU", "config": {"name": "block_15_expand_relu", "trainable": true, "dtype": "float32", "max_value": 6.0, "negative_slope": 0.0, "threshold": 0.0}, "inbound_nodes": [[["block_15_expand_BN", 0, 0, {}]]]}, {"name": "block_15_depthwise", "class_name": "DepthwiseConv2D", "config": {"name": "block_15_depthwise", "trainable": true, "dtype": "float32", "kernel_size": [3, 3], "strides": [1, 1], "padding": "same", "data_format": "channels_last", "dilation_rate": [1, 1], "activation": "linear", "use_bias": false, "bias_initializer": {"class_name": "Zeros", "config": {"dtype": "float32"}}, "bias_regularizer": null, "activity_regularizer": null, "bias_constraint": null, "depth_multiplier": 1, "depthwise_initializer": {"class_name": "GlorotUniform", "config": {"seed": null, "dtype": "float32"}}, "depthwise_regularizer": null, "depthwise_constraint": null}, "inbound_nodes": [[["block_15_expand_relu", 0, 0, {}]]]}, {"name": "block_15_depthwise_BN", "class_name": "BatchNormalization", "config": {"name": "block_15_depthwise_BN", "trainable": true, "dtype": "float32", "axis": [3], "momentum": 0.999, "epsilon": 0.001, "center": true, "scale": true, "beta_initializer": {"class_name": "Zeros", "config": {"dtype": "float32"}}, "gamma_initializer": {"class_name": "Ones", "config": {"dtype": "float32"}}, "moving_mean_initializer": {"class_name": "Zeros", "config": {"dtype": "float32"}}, "moving_variance_initializer": {"class_name": "Ones", "config": {"dtype": "float32"}}, "beta_regularizer": null, "gamma_regularizer": null, "beta_constraint": null, "gamma_constraint": null}, "inbound_nodes": [[["block_15_depthwise", 0, 0, {}]]]}, {"name": "block_15_depthwise_relu", "class_name": "ReLU", "config": {"name": "block_15_depthwise_relu", "trainable": true, "dtype": "float32", "max_value": 6.0, "negative_slope": 0.0, "threshold": 0.0}, "inbound_nodes": [[["block_15_depthwise_BN", 0, 0, {}]]]}, {"name": "block_15_project", "class_name": "Conv2D", "config": {"name": "block_15_project", "trainable": true, "dtype": "float32", "filters": 160, "kernel_size": [1, 1], "strides": [1, 1], "padding": "same", "data_format": "channels_last", "dilation_rate": [1, 1], "activation": "linear", "use_bias": false, "kernel_initializer": {"class_name": "GlorotUniform", "config": {"seed": null, "dtype": "float32"}}, "bias_initializer": {"class_name": "Zeros", "config": {"dtype": "float32"}}, "kernel_regularizer": null, "bias_regularizer": null, "activity_regularizer": null, "kernel_constraint": null, "bias_constraint": null}, "inbound_nodes": [[["block_15_depthwise_relu", 0, 0, {}]]]}, {"name": "block_15_project_BN", "class_name": "BatchNormalization", "config": {"name": "block_15_project_BN", "trainable": true, "dtype": "float32", "axis": [3], "momentum": 0.999, "epsilon": 0.001, "center": true, "scale": true, "beta_initializer": {"class_name": "Zeros", "config": {"dtype": "float32"}}, "gamma_initializer": {"class_name": "Ones", "config": {"dtype": "float32"}}, "moving_mean_initializer": {"class_name": "Zeros", "config": {"dtype": "float32"}}, "moving_variance_initializer": {"class_name": "Ones", "config": {"dtype": "float32"}}, "beta_regularizer": null, "gamma_regularizer": null, "beta_constraint": null, "gamma_constraint": null}, "inbound_nodes": [[["block_15_project", 0, 0, {}]]]}, {"name": "block_15_add", "class_name": "Add", "config": {"name": "block_15_add", "trainable": true, "dtype": "float32"}, "inbound_nodes": [[["block_14_add", 0, 0, {}], ["block_15_project_BN", 0, 0, {}]]]}, {"name": "block_16_expand", "class_name": "Conv2D", "config": {"name": "block_16_expand", "trainable": true, "dtype": "float32", "filters": 960, "kernel_size": [1, 1], "strides": [1, 1], "padding": "same", "data_format": "channels_last", "dilation_rate": [1, 1], "activation": "linear", "use_bias": false, "kernel_initializer": {"class_name": "GlorotUniform", "config": {"seed": null, "dtype": "float32"}}, "bias_initializer": {"class_name": "Zeros", "config": {"dtype": "float32"}}, "kernel_regularizer": null, "bias_regularizer": null, "activity_regularizer": null, "kernel_constraint": null, "bias_constraint": null}, "inbound_nodes": [[["block_15_add", 0, 0, {}]]]}, {"name": "block_16_expand_BN", "class_name": "BatchNormalization", "config": {"name": "block_16_expand_BN", "trainable": true, "dtype": "float32", "axis": [3], "momentum": 0.999, "epsilon": 0.001, "center": true, "scale": true, "beta_initializer": {"class_name": "Zeros", "config": {"dtype": "float32"}}, "gamma_initializer": {"class_name": "Ones", "config": {"dtype": "float32"}}, "moving_mean_initializer": {"class_name": "Zeros", "config": {"dtype": "float32"}}, "moving_variance_initializer": {"class_name": "Ones", "config": {"dtype": "float32"}}, "beta_regularizer": null, "gamma_regularizer": null, "beta_constraint": null, "gamma_constraint": null}, "inbound_nodes": [[["block_16_expand", 0, 0, {}]]]}, {"name": "block_16_expand_relu", "class_name": "ReLU", "config": {"name": "block_16_expand_relu", "trainable": true, "dtype": "float32", "max_value": 6.0, "negative_slope": 0.0, "threshold": 0.0}, "inbound_nodes": [[["block_16_expand_BN", 0, 0, {}]]]}, {"name": "block_16_depthwise", "class_name": "DepthwiseConv2D", "config": {"name": "block_16_depthwise", "trainable": true, "dtype": "float32", "kernel_size": [3, 3], "strides": [1, 1], "padding": "same", "data_format": "channels_last", "dilation_rate": [1, 1], "activation": "linear", "use_bias": false, "bias_initializer": {"class_name": "Zeros", "config": {"dtype": "float32"}}, "bias_regularizer": null, "activity_regularizer": null, "bias_constraint": null, "depth_multiplier": 1, "depthwise_initializer": {"class_name": "GlorotUniform", "config": {"seed": null, "dtype": "float32"}}, "depthwise_regularizer": null, "depthwise_constraint": null}, "inbound_nodes": [[["block_16_expand_relu", 0, 0, {}]]]}, {"name": "block_16_depthwise_BN", "class_name": "BatchNormalization", "config": {"name": "block_16_depthwise_BN", "trainable": true, "dtype": "float32", "axis": [3], "momentum": 0.999, "epsilon": 0.001, "center": true, "scale": true, "beta_initializer": {"class_name": "Zeros", "config": {"dtype": "float32"}}, "gamma_initializer": {"class_name": "Ones", "config": {"dtype": "float32"}}, "moving_mean_initializer": {"class_name": "Zeros", "config": {"dtype": "float32"}}, "moving_variance_initializer": {"class_name": "Ones", "config": {"dtype": "float32"}}, "beta_regularizer": null, "gamma_regularizer": null, "beta_constraint": null, "gamma_constraint": null}, "inbound_nodes": [[["block_16_depthwise", 0, 0, {}]]]}, {"name": "block_16_depthwise_relu", "class_name": "ReLU", "config": {"name": "block_16_depthwise_relu", "trainable": true, "dtype": "float32", "max_value": 6.0, "negative_slope": 0.0, "threshold": 0.0}, "inbound_nodes": [[["block_16_depthwise_BN", 0, 0, {}]]]}, {"name": "block_16_project", "class_name": "Conv2D", "config": {"name": "block_16_project", "trainable": true, "dtype": "float32", "filters": 320, "kernel_size": [1, 1], "strides": [1, 1], "padding": "same", "data_format": "channels_last", "dilation_rate": [1, 1], "activation": "linear", "use_bias": false, "kernel_initializer": {"class_name": "GlorotUniform", "config": {"seed": null, "dtype": "float32"}}, "bias_initializer": {"class_name": "Zeros", "config": {"dtype": "float32"}}, "kernel_regularizer": null, "bias_regularizer": null, "activity_regularizer": null, "kernel_constraint": null, "bias_constraint": null}, "inbound_nodes": [[["block_16_depthwise_relu", 0, 0, {}]]]}, {"name": "block_16_project_BN", "class_name": "BatchNormalization", "config": {"name": "block_16_project_BN", "trainable": true, "dtype": "float32", "axis": [3], "momentum": 0.999, "epsilon": 0.001, "center": true, "scale": true, "beta_initializer": {"class_name": "Zeros", "config": {"dtype": "float32"}}, "gamma_initializer": {"class_name": "Ones", "config": {"dtype": "float32"}}, "moving_mean_initializer": {"class_name": "Zeros", "config": {"dtype": "float32"}}, "moving_variance_initializer": {"class_name": "Ones", "config": {"dtype": "float32"}}, "beta_regularizer": null, "gamma_regularizer": null, "beta_constraint": null, "gamma_constraint": null}, "inbound_nodes": [[["block_16_project", 0, 0, {}]]]}, {"name": "Conv_1", "class_name": "Conv2D", "config": {"name": "Conv_1", "trainable": true, "dtype": "float32", "filters": 1280, "kernel_size": [1, 1], "strides": [1, 1], "padding": "valid", "data_format": "channels_last", "dilation_rate": [1, 1], "activation": "linear", "use_bias": false, "kernel_initializer": {"class_name": "GlorotUniform", "config": {"seed": null, "dtype": "float32"}}, "bias_initializer": {"class_name": "Zeros", "config": {"dtype": "float32"}}, "kernel_regularizer": null, "bias_regularizer": null, "activity_regularizer": null, "kernel_constraint": null, "bias_constraint": null}, "inbound_nodes": [[["block_16_project_BN", 0, 0, {}]]]}, {"name": "Conv_1_bn", "class_name": "BatchNormalization", "config": {"name": "Conv_1_bn", "trainable": true, "dtype": "float32", "axis": [3], "momentum": 0.999, "epsilon": 0.001, "center": true, "scale": true, "beta_initializer": {"class_name": "Zeros", "config": {"dtype": "float32"}}, "gamma_initializer": {"class_name": "Ones", "config": {"dtype": "float32"}}, "moving_mean_initializer": {"class_name": "Zeros", "config": {"dtype": "float32"}}, "moving_variance_initializer": {"class_name": "Ones", "config": {"dtype": "float32"}}, "beta_regularizer": null, "gamma_regularizer": null, "beta_constraint": null, "gamma_constraint": null}, "inbound_nodes": [[["Conv_1", 0, 0, {}]]]}, {"name": "out_relu", "class_name": "ReLU", "config": {"name": "out_relu", "trainable": true, "dtype": "float32", "max_value": 6.0, "negative_slope": 0.0, "threshold": 0.0}, "inbound_nodes": [[["Conv_1_bn", 0, 0, {}]]]}, {"name": "global_average_pooling2d", "class_name": "GlobalAveragePooling2D", "config": {"name": "global_average_pooling2d", "trainable": true, "dtype": "float32", "data_format": "channels_last"}, "inbound_nodes": [[["out_relu", 0, 0, {}]]]}], "input_layers": [["input_1", 0, 0]], "output_layers": [["global_average_pooling2d", 0, 0]], "batch_input_shape": [null, null, null, 3]}}, {"class_name": "Dense", "config": {"name": "dense", "trainable": true, "dtype": "float32", "units": 1, "activation": "linear", "use_bias": true, "kernel_initializer": {"class_name": "GlorotUniform", "config": {"seed": null, "dtype": "float32"}}, "bias_initializer": {"class_name": "Zeros", "config": {"dtype": "float32"}}, "kernel_regularizer": null, "bias_regularizer": null, "activity_regularizer": null, "kernel_constraint": null, "bias_constraint": null}}]}}, "training_config": {"loss": "mean_squared_error", "metrics": [], "weighted_metrics": null, "sample_weight_mode": null, "loss_weights": null, "optimizer_config": {"class_name": "Adam", "config": {"name": "Adam", "learning_rate": 9.999999747378752e-05, "decay": 0.0, "beta_1": 0.8999999761581421, "beta_2": 0.9990000128746033, "epsilon": 1e-07, "amsgrad": false}}}}, "weightsManifest": [{"paths": ["group1-shard1of1.bin"], "weights": [{"name": "dense_2/kernel", "shape": [1280, 1], "dtype": "float32", "quantization": {"dtype": "uint8", "min": -0.07618706483466953, "scale": 0.0006567850416781855, "original_dtype": "float32"}}, {"name": "dense_2/bias", "shape": [1], "dtype": "float32", "quantization": {"dtype": "uint8", "min": 0.2011471390724182, "scale": 1.0, "original_dtype": "float32"}}, {"name": "Conv1_2/kernel", "shape": [3, 3, 3, 32], "dtype": "float32", "quantization": {"dtype": "uint8", "min": -0.7729850984087178, "scale": 0.005946039218528598, "original_dtype": "float32"}}, {"name": "bn_Conv1_2/gamma", "shape": [32], "dtype": "float32", "quantization": {"dtype": "uint8", "min": 0.15859852731227875, "scale": 0.01624063189123191, "original_dtype": "float32"}}, {"name": "bn_Conv1_2/beta", "shape": [32], "dtype": "float32", "quantization": {"dtype": "uint8", "min": -6.163537148868336, "scale": 0.04280234131158567, "original_dtype": "float32"}}, {"name": "expanded_conv_depthwise_2/depthwise_kernel", "shape": [3, 3, 32, 1], "dtype": "float32", "quantization": {"dtype": "uint8", "min": -25.742815219654755, "scale": 0.19355500165153952, "original_dtype": "float32"}}, {"name": "expanded_conv_depthwise_BN_2/gamma", "shape": [32], "dtype": "float32", "quantization": {"dtype": "uint8", "min": -0.09378564720060312, "scale": 0.007214280553892547, "original_dtype": "float32"}}, {"name": "expanded_conv_depthwise_BN_2/beta", "shape": [32], "dtype": "float32", "quantization": {"dtype": "uint8", "min": -1.364251434101778, "scale": 0.018688375809613397, "original_dtype": "float32"}}, {"name": "expanded_conv_project_2/kernel", "shape": [1, 1, 32, 16], "dtype": "float32", "quantization": {"dtype": "uint8", "min": -1.2871627980587528, "scale": 0.008816183548347623, "original_dtype": "float32"}}, {"name": "expanded_conv_project_BN_2/gamma", "shape": [16], "dtype": "float32", "quantization": {"dtype": "uint8", "min": 2.642286777496338, "scale": 0.009848233765246822, "original_dtype": "float32"}}, {"name": "expanded_conv_project_BN_2/beta", "shape": [16], "dtype": "float32", "quantization": {"dtype": "uint8", "min": -0.03867996238610324, "scale": 0.00044459726880578435, "original_dtype": "float32"}}, {"name": "block_1_expand_2/kernel", "shape": [1, 1, 16, 96], "dtype": "float32", "quantization": {"dtype": "uint8", "min": -1.1248926585795833, "scale": 0.006986910922854555, "original_dtype": "float32"}}, {"name": "block_1_expand_BN_2/gamma", "shape": [96], "dtype": "float32", "quantization": {"dtype": "uint8", "min": 0.20775416493415833, "scale": 0.03747296041133357, "original_dtype": "float32"}}, {"name": "block_1_expand_BN_2/beta", "shape": [96], "dtype": "float32", "quantization": {"dtype": "uint8", "min": -2.241086174460018, "scale": 0.02801357718075023, "original_dtype": "float32"}}, {"name": "block_1_depthwise_2/depthwise_kernel", "shape": [3, 3, 96, 1], "dtype": "float32", "quantization": {"dtype": "uint8", "min": -3.070176982879639, "scale": 0.025373363494873048, "original_dtype": "float32"}}, {"name": "block_1_depthwise_BN_2/gamma", "shape": [96], "dtype": "float32", "quantization": {"dtype": "uint8", "min": 0.45392927527427673, "scale": 0.011630962058609607, "original_dtype": "float32"}}, {"name": "block_1_depthwise_BN_2/beta", "shape": [96], "dtype": "float32", "quantization": {"dtype": "uint8", "min": -4.133447871488683, "scale": 0.03416072621065028, "original_dtype": "float32"}}, {"name": "block_1_project_2/kernel", "shape": [1, 1, 96, 24], "dtype": "float32", "quantization": {"dtype": "uint8", "min": -1.2282343927551718, "scale": 0.007443844804576799, "original_dtype": "float32"}}, {"name": "block_1_project_BN_2/gamma", "shape": [24], "dtype": "float32", "quantization": {"dtype": "uint8", "min": 1.9821537733078003, "scale": 0.013029153206769157, "original_dtype": "float32"}}, {"name": "block_1_project_BN_2/beta", "shape": [24], "dtype": "float32", "quantization": {"dtype": "uint8", "min": -0.01004175693892381, "scale": 8.033405551139047e-05, "original_dtype": "float32"}}, {"name": "block_2_expand_2/kernel", "shape": [1, 1, 24, 144], "dtype": "float32", "quantization": {"dtype": "uint8", "min": -0.46282694538434344, "scale": 0.0038893020620533064, "original_dtype": "float32"}}, {"name": "block_2_expand_BN_2/gamma", "shape": [144], "dtype": "float32", "quantization": {"dtype": "uint8", "min": 0.17833127081394196, "scale": 0.01641465209278406, "original_dtype": "float32"}}, {"name": "block_2_expand_BN_2/beta", "shape": [144], "dtype": "float32", "quantization": {"dtype": "uint8", "min": -2.5821481031530045, "scale": 0.028690534479477826, "original_dtype": "float32"}}, {"name": "block_2_depthwise_2/depthwise_kernel", "shape": [3, 3, 144, 1], "dtype": "float32", "quantization": {"dtype": "uint8", "min": -7.2238141676958865, "scale": 0.05873019648533241, "original_dtype": "float32"}}, {"name": "block_2_depthwise_BN_2/gamma", "shape": [144], "dtype": "float32", "quantization": {"dtype": "uint8", "min": 0.3917323350906372, "scale": 0.0083052350025551, "original_dtype": "float32"}}, {"name": "block_2_depthwise_BN_2/beta", "shape": [144], "dtype": "float32", "quantization": {"dtype": "uint8", "min": -3.292339190314798, "scale": 0.03429519989911248, "original_dtype": "float32"}}, {"name": "block_2_project_2/kernel", "shape": [1, 1, 144, 24], "dtype": "float32", "quantization": {"dtype": "uint8", "min": -0.4624641960742427, "scale": 0.004129144607805738, "original_dtype": "float32"}}, {"name": "block_2_project_BN_2/gamma", "shape": [24], "dtype": "float32", "quantization": {"dtype": "uint8", "min": 1.4382013082504272, "scale": 0.024738284185820934, "original_dtype": "float32"}}, {"name": "block_2_project_BN_2/beta", "shape": [24], "dtype": "float32", "quantization": {"dtype": "uint8", "min": -0.00660970035721274, "scale": 5.649316544626273e-05, "original_dtype": "float32"}}, {"name": "block_3_expand_2/kernel", "shape": [1, 1, 24, 144], "dtype": "float32", "quantization": {"dtype": "uint8", "min": -0.9521929411327138, "scale": 0.00705328104542751, "original_dtype": "float32"}}, {"name": "block_3_expand_BN_2/gamma", "shape": [144], "dtype": "float32", "quantization": {"dtype": "uint8", "min": 0.28681907057762146, "scale": 0.014003933761634078, "original_dtype": "float32"}}, {"name": "block_3_expand_BN_2/beta", "shape": [144], "dtype": "float32", "quantization": {"dtype": "uint8", "min": -2.3783539416743262, "scale": 0.025035304649203432, "original_dtype": "float32"}}, {"name": "block_3_depthwise_2/depthwise_kernel", "shape": [3, 3, 144, 1], "dtype": "float32", "quantization": {"dtype": "uint8", "min": -2.2819571551154643, "scale": 0.017968166575712315, "original_dtype": "float32"}}, {"name": "block_3_depthwise_BN_2/gamma", "shape": [144], "dtype": "float32", "quantization": {"dtype": "uint8", "min": 0.3263658285140991, "scale": 0.011650548729242063, "original_dtype": "float32"}}, {"name": "block_3_depthwise_BN_2/beta", "shape": [144], "dtype": "float32", "quantization": {"dtype": "uint8", "min": -2.8243947047813265, "scale": 0.031037304448146445, "original_dtype": "float32"}}, {"name": "block_3_project_2/kernel", "shape": [1, 1, 144, 32], "dtype": "float32", "quantization": {"dtype": "uint8", "min": -0.6866032993092257, "scale": 0.006357437956566904, "original_dtype": "float32"}}, {"name": "block_3_project_BN_2/gamma", "shape": [32], "dtype": "float32", "quantization": {"dtype": "uint8", "min": 2.476691961288452, "scale": 0.016704201230815813, "original_dtype": "float32"}}, {"name": "block_3_project_BN_2/beta", "shape": [32], "dtype": "float32", "quantization": {"dtype": "uint8", "min": -0.005929582724895547, "scale": 5.8708739850450965e-05, "original_dtype": "float32"}}, {"name": "block_4_expand_2/kernel", "shape": [1, 1, 32, 192], "dtype": "float32", "quantization": {"dtype": "uint8", "min": -0.4032108226243188, "scale": 0.0028596512242859487, "original_dtype": "float32"}}, {"name": "block_4_expand_BN_2/gamma", "shape": [192], "dtype": "float32", "quantization": {"dtype": "uint8", "min": 0.14057175815105438, "scale": 0.007664401215665481, "original_dtype": "float32"}}, {"name": "block_4_expand_BN_2/beta", "shape": [192], "dtype": "float32", "quantization": {"dtype": "uint8", "min": -2.6123821295943914, "scale": 0.022520535599951652, "original_dtype": "float32"}}, {"name": "block_4_depthwise_2/depthwise_kernel", "shape": [3, 3, 192, 1], "dtype": "float32", "quantization": {"dtype": "uint8", "min": -4.976787701775047, "scale": 0.037140206729664525, "original_dtype": "float32"}}, {"name": "block_4_depthwise_BN_2/gamma", "shape": [192], "dtype": "float32", "quantization": {"dtype": "uint8", "min": 0.39442121982574463, "scale": 0.009384045413896149, "original_dtype": "float32"}}, {"name": "block_4_depthwise_BN_2/beta", "shape": [192], "dtype": "float32", "quantization": {"dtype": "uint8", "min": -2.905851123847213, "scale": 0.024015298544191845, "original_dtype": "float32"}}, {"name": "block_4_project_2/kernel", "shape": [1, 1, 192, 32], "dtype": "float32", "quantization": {"dtype": "uint8", "min": -0.49527137010705236, "scale": 0.0034156646214279474, "original_dtype": "float32"}}, {"name": "block_4_project_BN_2/gamma", "shape": [32], "dtype": "float32", "quantization": {"dtype": "uint8", "min": 0.9694790840148926, "scale": 0.019956233454685585, "original_dtype": "float32"}}, {"name": "block_4_project_BN_2/beta", "shape": [32], "dtype": "float32", "quantization": {"dtype": "uint8", "min": -0.006206142434886858, "scale": 4.848548777255358e-05, "original_dtype": "float32"}}, {"name": "block_5_expand_2/kernel", "shape": [1, 1, 32, 192], "dtype": "float32", "quantization": {"dtype": "uint8", "min": -0.35739402841119206, "scale": 0.002929459249272066, "original_dtype": "float32"}}, {"name": "block_5_expand_BN_2/gamma", "shape": [192], "dtype": "float32", "quantization": {"dtype": "uint8", "min": 0.14531797170639038, "scale": 0.0071572039641586, "original_dtype": "float32"}}, {"name": "block_5_expand_BN_2/beta", "shape": [192], "dtype": "float32", "quantization": {"dtype": "uint8", "min": -1.5877174368091658, "scale": 0.019129125744688745, "original_dtype": "float32"}}, {"name": "block_5_depthwise_2/depthwise_kernel", "shape": [3, 3, 192, 1], "dtype": "float32", "quantization": {"dtype": "uint8", "min": -4.561597244412292, "scale": 0.0325828374600878, "original_dtype": "float32"}}, {"name": "block_5_depthwise_BN_2/gamma", "shape": [192], "dtype": "float32", "quantization": {"dtype": "uint8", "min": 0.42818790674209595, "scale": 0.008490939000073602, "original_dtype": "float32"}}, {"name": "block_5_depthwise_BN_2/beta", "shape": [192], "dtype": "float32", "quantization": {"dtype": "uint8", "min": -2.87517211857964, "scale": 0.02337538307788325, "original_dtype": "float32"}}, {"name": "block_5_project_2/kernel", "shape": [1, 1, 192, 32], "dtype": "float32", "quantization": {"dtype": "uint8", "min": -0.35929075199015004, "scale": 0.0028515139046837302, "original_dtype": "float32"}}, {"name": "block_5_project_BN_2/gamma", "shape": [32], "dtype": "float32", "quantization": {"dtype": "uint8", "min": 0.9168791174888611, "scale": 0.018865978250316544, "original_dtype": "float32"}}, {"name": "block_5_project_BN_2/beta", "shape": [32], "dtype": "float32", "quantization": {"dtype": "uint8", "min": -0.005477727325085331, "scale": 4.347402638956612e-05, "original_dtype": "float32"}}, {"name": "block_6_expand_2/kernel", "shape": [1, 1, 32, 192], "dtype": "float32", "quantization": {"dtype": "uint8", "min": -0.6446431412416347, "scale": 0.00511621540667964, "original_dtype": "float32"}}, {"name": "block_6_expand_BN_2/gamma", "shape": [192], "dtype": "float32", "quantization": {"dtype": "uint8", "min": 0.4613625705242157, "scale": 0.009235269064996757, "original_dtype": "float32"}}, {"name": "block_6_expand_BN_2/beta", "shape": [192], "dtype": "float32", "quantization": {"dtype": "uint8", "min": -1.8550862144021427, "scale": 0.015459051786684523, "original_dtype": "float32"}}, {"name": "block_6_depthwise_2/depthwise_kernel", "shape": [3, 3, 192, 1], "dtype": "float32", "quantization": {"dtype": "uint8", "min": -1.9957852083093979, "scale": 0.016631543402578317, "original_dtype": "float32"}}, {"name": "block_6_depthwise_BN_2/gamma", "shape": [192], "dtype": "float32", "quantization": {"dtype": "uint8", "min": 0.424613893032074, "scale": 0.006559596575942694, "original_dtype": "float32"}}, {"name": "block_6_depthwise_BN_2/beta", "shape": [192], "dtype": "float32", "quantization": {"dtype": "uint8", "min": -1.4881671835394465, "scale": 0.02610819620244643, "original_dtype": "float32"}}, {"name": "block_6_project_2/kernel", "shape": [1, 1, 192, 64], "dtype": "float32", "quantization": {"dtype": "uint8", "min": -0.8973820602192598, "scale": 0.0058271562351899986, "original_dtype": "float32"}}, {"name": "block_6_project_BN_2/gamma", "shape": [64], "dtype": "float32", "quantization": {"dtype": "uint8", "min": 0.8706924915313721, "scale": 0.02134260196311801, "original_dtype": "float32"}}, {"name": "block_6_project_BN_2/beta", "shape": [64], "dtype": "float32", "quantization": {"dtype": "uint8", "min": -0.005760189649813315, "scale": 4.36378003773736e-05, "original_dtype": "float32"}}, {"name": "block_7_expand_2/kernel", "shape": [1, 1, 64, 384], "dtype": "float32", "quantization": {"dtype": "uint8", "min": -0.324250112211003, "scale": 0.0022996461858936384, "original_dtype": "float32"}}, {"name": "block_7_expand_BN_2/gamma", "shape": [384], "dtype": "float32", "quantization": {"dtype": "uint8", "min": 0.1222032755613327, "scale": 0.005761448834456649, "original_dtype": "float32"}}, {"name": "block_7_expand_BN_2/beta", "shape": [384], "dtype": "float32", "quantization": {"dtype": "uint8", "min": -1.5317000613493077, "scale": 0.019388608371510224, "original_dtype": "float32"}}, {"name": "block_7_depthwise_2/depthwise_kernel", "shape": [3, 3, 384, 1], "dtype": "float32", "quantization": {"dtype": "uint8", "min": -3.2802916321099973, "scale": 0.022939102322447533, "original_dtype": "float32"}}, {"name": "block_7_depthwise_BN_2/gamma", "shape": [384], "dtype": "float32", "quantization": {"dtype": "uint8", "min": 0.2553713023662567, "scale": 0.009460814910776475, "original_dtype": "float32"}}, {"name": "block_7_depthwise_BN_2/beta", "shape": [384], "dtype": "float32", "quantization": {"dtype": "uint8", "min": -3.640069181778852, "scale": 0.021163192917318906, "original_dtype": "float32"}}, {"name": "block_7_project_2/kernel", "shape": [1, 1, 384, 64], "dtype": "float32", "quantization": {"dtype": "uint8", "min": -0.5262125473396451, "scale": 0.0040477888256895776, "original_dtype": "float32"}}, {"name": "block_7_project_BN_2/gamma", "shape": [64], "dtype": "float32", "quantization": {"dtype": "uint8", "min": 0.6194953322410583, "scale": 0.020022751537023806, "original_dtype": "float32"}}, {"name": "block_7_project_BN_2/beta", "shape": [64], "dtype": "float32", "quantization": {"dtype": "uint8", "min": -0.004218281411072787, "scale": 3.5152345092273223e-05, "original_dtype": "float32"}}, {"name": "block_8_expand_2/kernel", "shape": [1, 1, 64, 384], "dtype": "float32", "quantization": {"dtype": "uint8", "min": -0.49991416124736565, "scale": 0.0034959032255060534, "original_dtype": "float32"}}, {"name": "block_8_expand_BN_2/gamma", "shape": [384], "dtype": "float32", "quantization": {"dtype": "uint8", "min": 0.08652083575725555, "scale": 0.005681572533121296, "original_dtype": "float32"}}, {"name": "block_8_expand_BN_2/beta", "shape": [384], "dtype": "float32", "quantization": {"dtype": "uint8", "min": -1.4626249925763, "scale": 0.014481435570062375, "original_dtype": "float32"}}, {"name": "block_8_depthwise_2/depthwise_kernel", "shape": [3, 3, 384, 1], "dtype": "float32", "quantization": {"dtype": "uint8", "min": -3.4213336682787125, "scale": 0.02693963518329695, "original_dtype": "float32"}}, {"name": "block_8_depthwise_BN_2/gamma", "shape": [384], "dtype": "float32", "quantization": {"dtype": "uint8", "min": 0.3306635320186615, "scale": 0.016057289932288374, "original_dtype": "float32"}}, {"name": "block_8_depthwise_BN_2/beta", "shape": [384], "dtype": "float32", "quantization": {"dtype": "uint8", "min": -6.189200558381922, "scale": 0.03274709290149165, "original_dtype": "float32"}}, {"name": "block_8_project_2/kernel", "shape": [1, 1, 384, 64], "dtype": "float32", "quantization": {"dtype": "uint8", "min": -0.2819729531512541, "scale": 0.0022378805805655087, "original_dtype": "float32"}}, {"name": "block_8_project_BN_2/gamma", "shape": [64], "dtype": "float32", "quantization": {"dtype": "uint8", "min": 0.6634352803230286, "scale": 0.01260434482611862, "original_dtype": "float32"}}, {"name": "block_8_project_BN_2/beta", "shape": [64], "dtype": "float32", "quantization": {"dtype": "uint8", "min": -0.004893586313461556, "scale": 3.624878750712264e-05, "original_dtype": "float32"}}, {"name": "block_9_expand_2/kernel", "shape": [1, 1, 64, 384], "dtype": "float32", "quantization": {"dtype": "uint8", "min": -0.3129892251070808, "scale": 0.0030387303408454447, "original_dtype": "float32"}}, {"name": "block_9_expand_BN_2/gamma", "shape": [384], "dtype": "float32", "quantization": {"dtype": "uint8", "min": 0.21886718273162842, "scale": 0.007076449955210966, "original_dtype": "float32"}}, {"name": "block_9_expand_BN_2/beta", "shape": [384], "dtype": "float32", "quantization": {"dtype": "uint8", "min": -1.3974785664502314, "scale": 0.011944261251711379, "original_dtype": "float32"}}, {"name": "block_9_depthwise_2/depthwise_kernel", "shape": [3, 3, 384, 1], "dtype": "float32", "quantization": {"dtype": "uint8", "min": -2.8338617240681367, "scale": 0.019817214853623335, "original_dtype": "float32"}}, {"name": "block_9_depthwise_BN_2/gamma", "shape": [384], "dtype": "float32", "quantization": {"dtype": "uint8", "min": 0.3797925114631653, "scale": 0.007740655366112204, "original_dtype": "float32"}}, {"name": "block_9_depthwise_BN_2/beta", "shape": [384], "dtype": "float32", "quantization": {"dtype": "uint8", "min": -4.161093646404789, "scale": 0.025066829195209576, "original_dtype": "float32"}}, {"name": "block_9_project_2/kernel", "shape": [1, 1, 384, 64], "dtype": "float32", "quantization": {"dtype": "uint8", "min": -0.4967935470973744, "scale": 0.0033119569806491626, "original_dtype": "float32"}}, {"name": "block_9_project_BN_2/gamma", "shape": [64], "dtype": "float32", "quantization": {"dtype": "uint8", "min": 0.7008981108665466, "scale": 0.012062280552059997, "original_dtype": "float32"}}, {"name": "block_9_project_BN_2/beta", "shape": [64], "dtype": "float32", "quantization": {"dtype": "uint8", "min": -0.004025393487045578, "scale": 2.8959665374428618e-05, "original_dtype": "float32"}}, {"name": "block_10_expand_2/kernel", "shape": [1, 1, 64, 384], "dtype": "float32", "quantization": {"dtype": "uint8", "min": -0.47410922424466, "scale": 0.0038234614858440323, "original_dtype": "float32"}}, {"name": "block_10_expand_BN_2/gamma", "shape": [384], "dtype": "float32", "quantization": {"dtype": "uint8", "min": 0.31773656606674194, "scale": 0.006755445751489377, "original_dtype": "float32"}}, {"name": "block_10_expand_BN_2/beta", "shape": [384], "dtype": "float32", "quantization": {"dtype": "uint8", "min": -1.9381651878356934, "scale": 0.01628710241878734, "original_dtype": "float32"}}, {"name": "block_10_depthwise_2/depthwise_kernel", "shape": [3, 3, 384, 1], "dtype": "float32", "quantization": {"dtype": "uint8", "min": -4.093152214499081, "scale": 0.03410960178749234, "original_dtype": "float32"}}, {"name": "block_10_depthwise_BN_2/gamma", "shape": [384], "dtype": "float32", "quantization": {"dtype": "uint8", "min": 0.39778637886047363, "scale": 0.007311758340573778, "original_dtype": "float32"}}, {"name": "block_10_depthwise_BN_2/beta", "shape": [384], "dtype": "float32", "quantization": {"dtype": "uint8", "min": -1.6705469243666706, "scale": 0.02320204061620376, "original_dtype": "float32"}}, {"name": "block_10_project_2/kernel", "shape": [1, 1, 384, 96], "dtype": "float32", "quantization": {"dtype": "uint8", "min": -0.368422248433618, "scale": 0.00331911935525782, "original_dtype": "float32"}}, {"name": "block_10_project_BN_2/gamma", "shape": [96], "dtype": "float32", "quantization": {"dtype": "uint8", "min": 1.8238482475280762, "scale": 0.010030948414522059, "original_dtype": "float32"}}, {"name": "block_10_project_BN_2/beta", "shape": [96], "dtype": "float32", "quantization": {"dtype": "uint8", "min": -0.007304550500988377, "scale": 5.3317886868528294e-05, "original_dtype": "float32"}}, {"name": "block_11_expand_2/kernel", "shape": [1, 1, 96, 576], "dtype": "float32", "quantization": {"dtype": "uint8", "min": -0.29937089646563814, "scale": 0.002357251153272741, "original_dtype": "float32"}}, {"name": "block_11_expand_BN_2/gamma", "shape": [576], "dtype": "float32", "quantization": {"dtype": "uint8", "min": 0.0016379717271775007, "scale": 0.011177126425044502, "original_dtype": "float32"}}, {"name": "block_11_expand_BN_2/beta", "shape": [576], "dtype": "float32", "quantization": {"dtype": "uint8", "min": -1.689124808591955, "scale": 0.0187680534287995, "original_dtype": "float32"}}, {"name": "block_11_depthwise_2/depthwise_kernel", "shape": [3, 3, 576, 1], "dtype": "float32", "quantization": {"dtype": "uint8", "min": -3.1196133108700024, "scale": 0.024183048921472886, "original_dtype": "float32"}}, {"name": "block_11_depthwise_BN_2/gamma", "shape": [576], "dtype": "float32", "quantization": {"dtype": "uint8", "min": 0.2657342553138733, "scale": 0.01198341402353025, "original_dtype": "float32"}}, {"name": "block_11_depthwise_BN_2/beta", "shape": [576], "dtype": "float32", "quantization": {"dtype": "uint8", "min": -3.511613682204602, "scale": 0.024218025394514495, "original_dtype": "float32"}}, {"name": "block_11_project_2/kernel", "shape": [1, 1, 576, 96], "dtype": "float32", "quantization": {"dtype": "uint8", "min": -0.24488067217901638, "scale": 0.001959045377432131, "original_dtype": "float32"}}, {"name": "block_11_project_BN_2/gamma", "shape": [96], "dtype": "float32", "quantization": {"dtype": "uint8", "min": 0.646929144859314, "scale": 0.008156298188602223, "original_dtype": "float32"}}, {"name": "block_11_project_BN_2/beta", "shape": [96], "dtype": "float32", "quantization": {"dtype": "uint8", "min": -0.00654946273083196, "scale": 4.2254598263432e-05, "original_dtype": "float32"}}, {"name": "block_12_expand_2/kernel", "shape": [1, 1, 96, 576], "dtype": "float32", "quantization": {"dtype": "uint8", "min": -0.24068038533715638, "scale": 0.0020396642825182745, "original_dtype": "float32"}}, {"name": "block_12_expand_BN_2/gamma", "shape": [576], "dtype": "float32", "quantization": {"dtype": "uint8", "min": 0.22418439388275146, "scale": 0.010038215506310556, "original_dtype": "float32"}}, {"name": "block_12_expand_BN_2/beta", "shape": [576], "dtype": "float32", "quantization": {"dtype": "uint8", "min": -1.917320187886556, "scale": 0.016528622309366862, "original_dtype": "float32"}}, {"name": "block_12_depthwise_2/depthwise_kernel", "shape": [3, 3, 576, 1], "dtype": "float32", "quantization": {"dtype": "uint8", "min": -3.064126225078807, "scale": 0.02491159532584396, "original_dtype": "float32"}}, {"name": "block_12_depthwise_BN_2/gamma", "shape": [576], "dtype": "float32", "quantization": {"dtype": "uint8", "min": 0.20236462354660034, "scale": 0.018353265173294966, "original_dtype": "float32"}}, {"name": "block_12_depthwise_BN_2/beta", "shape": [576], "dtype": "float32", "quantization": {"dtype": "uint8", "min": -5.971924613503849, "scale": 0.036414174472584444, "original_dtype": "float32"}}, {"name": "block_12_project_2/kernel", "shape": [1, 1, 576, 96], "dtype": "float32", "quantization": {"dtype": "uint8", "min": -0.45796185147528556, "scale": 0.0032711560819663255, "original_dtype": "float32"}}, {"name": "block_12_project_BN_2/gamma", "shape": [96], "dtype": "float32", "quantization": {"dtype": "uint8", "min": 0.7614409327507019, "scale": 0.013356234279333376, "original_dtype": "float32"}}, {"name": "block_12_project_BN_2/beta", "shape": [96], "dtype": "float32", "quantization": {"dtype": "uint8", "min": -0.0055716145856707705, "scale": 3.97972470405055e-05, "original_dtype": "float32"}}, {"name": "block_13_expand_2/kernel", "shape": [1, 1, 96, 576], "dtype": "float32", "quantization": {"dtype": "uint8", "min": -0.4120997053735396, "scale": 0.0031945713594848033, "original_dtype": "float32"}}, {"name": "block_13_expand_BN_2/gamma", "shape": [576], "dtype": "float32", "quantization": {"dtype": "uint8", "min": 0.09822063148021698, "scale": 0.007148611136511261, "original_dtype": "float32"}}, {"name": "block_13_expand_BN_2/beta", "shape": [576], "dtype": "float32", "quantization": {"dtype": "uint8", "min": -2.8257892346849625, "scale": 0.019760763878915823, "original_dtype": "float32"}}, {"name": "block_13_depthwise_2/depthwise_kernel", "shape": [3, 3, 576, 1], "dtype": "float32", "quantization": {"dtype": "uint8", "min": -1.4682575281928567, "scale": 0.011123163092370127, "original_dtype": "float32"}}, {"name": "block_13_depthwise_BN_2/gamma", "shape": [576], "dtype": "float32", "quantization": {"dtype": "uint8", "min": 0.3211475610733032, "scale": 0.005643968021168428, "original_dtype": "float32"}}, {"name": "block_13_depthwise_BN_2/beta", "shape": [576], "dtype": "float32", "quantization": {"dtype": "uint8", "min": -2.2437559866437726, "scale": 0.027033204658358706, "original_dtype": "float32"}}, {"name": "block_13_project_2/kernel", "shape": [1, 1, 576, 160], "dtype": "float32", "quantization": {"dtype": "uint8", "min": -0.3777523681229236, "scale": 0.002883605863533768, "original_dtype": "float32"}}, {"name": "block_13_project_BN_2/gamma", "shape": [160], "dtype": "float32", "quantization": {"dtype": "uint8", "min": 1.539538025856018, "scale": 0.0059937276092230105, "original_dtype": "float32"}}, {"name": "block_13_project_BN_2/beta", "shape": [160], "dtype": "float32", "quantization": {"dtype": "uint8", "min": -0.005034087682325466, "scale": 4.5764433475686055e-05, "original_dtype": "float32"}}, {"name": "block_14_expand_2/kernel", "shape": [1, 1, 160, 960], "dtype": "float32", "quantization": {"dtype": "uint8", "min": -0.287107879040288, "scale": 0.00224303030500225, "original_dtype": "float32"}}, {"name": "block_14_expand_BN_2/gamma", "shape": [960], "dtype": "float32", "quantization": {"dtype": "uint8", "min": 0.2856505811214447, "scale": 0.008795052533056222, "original_dtype": "float32"}}, {"name": "block_14_expand_BN_2/beta", "shape": [960], "dtype": "float32", "quantization": {"dtype": "uint8", "min": -1.8778705092037424, "scale": 0.015914156857658835, "original_dtype": "float32"}}, {"name": "block_14_depthwise_2/depthwise_kernel", "shape": [3, 3, 960, 1], "dtype": "float32", "quantization": {"dtype": "uint8", "min": -3.8373594845042507, "scale": 0.026648329753501742, "original_dtype": "float32"}}, {"name": "block_14_depthwise_BN_2/gamma", "shape": [960], "dtype": "float32", "quantization": {"dtype": "uint8", "min": 0.2766508162021637, "scale": 0.017524919673508287, "original_dtype": "float32"}}, {"name": "block_14_depthwise_BN_2/beta", "shape": [960], "dtype": "float32", "quantization": {"dtype": "uint8", "min": -5.428413853925817, "scale": 0.03289947790258071, "original_dtype": "float32"}}, {"name": "block_14_project_2/kernel", "shape": [1, 1, 960, 160], "dtype": "float32", "quantization": {"dtype": "uint8", "min": -0.28291812258608195, "scale": 0.0019923811449724083, "original_dtype": "float32"}}, {"name": "block_14_project_BN_2/gamma", "shape": [160], "dtype": "float32", "quantization": {"dtype": "uint8", "min": 0.8589519262313843, "scale": 0.006854075544020709, "original_dtype": "float32"}}, {"name": "block_14_project_BN_2/beta", "shape": [160], "dtype": "float32", "quantization": {"dtype": "uint8", "min": -0.0039465753580717475, "scale": 3.107539652024998e-05, "original_dtype": "float32"}}, {"name": "block_15_expand_2/kernel", "shape": [1, 1, 160, 960], "dtype": "float32", "quantization": {"dtype": "uint8", "min": -0.2844036877155304, "scale": 0.0023122251033782957, "original_dtype": "float32"}}, {"name": "block_15_expand_BN_2/gamma", "shape": [960], "dtype": "float32", "quantization": {"dtype": "uint8", "min": 0.1780642569065094, "scale": 0.010378542484021654, "original_dtype": "float32"}}, {"name": "block_15_expand_BN_2/beta", "shape": [960], "dtype": "float32", "quantization": {"dtype": "uint8", "min": -2.071788673774869, "scale": 0.018334413042255478, "original_dtype": "float32"}}, {"name": "block_15_depthwise_2/depthwise_kernel", "shape": [3, 3, 960, 1], "dtype": "float32", "quantization": {"dtype": "uint8", "min": -3.790216438443053, "scale": 0.028497867958218445, "original_dtype": "float32"}}, {"name": "block_15_depthwise_BN_2/gamma", "shape": [960], "dtype": "float32", "quantization": {"dtype": "uint8", "min": 0.1481676995754242, "scale": 0.017136289208543067, "original_dtype": "float32"}}, {"name": "block_15_depthwise_BN_2/beta", "shape": [960], "dtype": "float32", "quantization": {"dtype": "uint8", "min": -6.164078424491135, "scale": 0.03583766525866939, "original_dtype": "float32"}}, {"name": "block_15_project_2/kernel", "shape": [1, 1, 960, 160], "dtype": "float32", "quantization": {"dtype": "uint8", "min": -0.44286769137663, "scale": 0.0033550582680047726, "original_dtype": "float32"}}, {"name": "block_15_project_BN_2/gamma", "shape": [160], "dtype": "float32", "quantization": {"dtype": "uint8", "min": 1.25510573387146, "scale": 0.010849259881412282, "original_dtype": "float32"}}, {"name": "block_15_project_BN_2/beta", "shape": [160], "dtype": "float32", "quantization": {"dtype": "uint8", "min": -0.0027063243666335065, "scale": 2.0046847160248196e-05, "original_dtype": "float32"}}, {"name": "block_16_expand_2/kernel", "shape": [1, 1, 160, 960], "dtype": "float32", "quantization": {"dtype": "uint8", "min": -0.3791421115398407, "scale": 0.0030824561913808187, "original_dtype": "float32"}}, {"name": "block_16_expand_BN_2/gamma", "shape": [960], "dtype": "float32", "quantization": {"dtype": "uint8", "min": 0.2588479816913605, "scale": 0.013369947204402849, "original_dtype": "float32"}}, {"name": "block_16_expand_BN_2/beta", "shape": [960], "dtype": "float32", "quantization": {"dtype": "uint8", "min": -1.8406828534369375, "scale": 0.015599007232516419, "original_dtype": "float32"}}, {"name": "block_16_depthwise_2/depthwise_kernel", "shape": [3, 3, 960, 1], "dtype": "float32", "quantization": {"dtype": "uint8", "min": -2.798258613137638, "scale": 0.023318821776146983, "original_dtype": "float32"}}, {"name": "block_16_depthwise_BN_2/gamma", "shape": [960], "dtype": "float32", "quantization": {"dtype": "uint8", "min": 0.44360554218292236, "scale": 0.011918501292957979, "original_dtype": "float32"}}, {"name": "block_16_depthwise_BN_2/beta", "shape": [960], "dtype": "float32", "quantization": {"dtype": "uint8", "min": -3.7262077705532897, "scale": 0.03240180670046339, "original_dtype": "float32"}}, {"name": "block_16_project_2/kernel", "shape": [1, 1, 960, 320], "dtype": "float32", "quantization": {"dtype": "uint8", "min": -0.4436412814785452, "scale": 0.0039967683016085154, "original_dtype": "float32"}}, {"name": "block_16_project_BN_2/gamma", "shape": [320], "dtype": "float32", "quantization": {"dtype": "uint8", "min": 1.7357102632522583, "scale": 0.007042114874895881, "original_dtype": "float32"}}, {"name": "block_16_project_BN_2/beta", "shape": [320], "dtype": "float32", "quantization": {"dtype": "uint8", "min": -0.0022363566601758494, "scale": 2.051703357959495e-05, "original_dtype": "float32"}}, {"name": "Conv_1_2/kernel", "shape": [1, 1, 320, 1280], "dtype": "float32", "quantization": {"dtype": "uint8", "min": -0.14785338757084865, "scale": 0.001155104590397255, "original_dtype": "float32"}}, {"name": "Conv_1_bn_2/gamma", "shape": [1280], "dtype": "float32", "quantization": {"dtype": "uint8", "min": 4.060483932495117, "scale": 0.004281844344793582, "original_dtype": "float32"}}, {"name": "Conv_1_bn_2/beta", "shape": [1280], "dtype": "float32", "quantization": {"dtype": "uint8", "min": -5.498184680938721, "scale": 0.007154392728618547, "original_dtype": "float32"}}, {"name": "bn_Conv1_2/moving_mean", "shape": [32], "dtype": "float32", "quantization": {"dtype": "uint8", "min": -1532.1383023131127, "scale": 10.352285826439951, "original_dtype": "float32"}}, {"name": "bn_Conv1_2/moving_variance", "shape": [32], "dtype": "float32", "quantization": {"dtype": "uint8", "min": 3.907289699258179e-36, "scale": 2249.2914215686274, "original_dtype": "float32"}}, {"name": "expanded_conv_depthwise_BN_2/moving_mean", "shape": [32], "dtype": "float32", "quantization": {"dtype": "uint8", "min": -13.707480755974265, "scale": 0.09932957069546569, "original_dtype": "float32"}}, {"name": "expanded_conv_depthwise_BN_2/moving_variance", "shape": [32], "dtype": "float32", "quantization": {"dtype": "uint8", "min": 3.908455938312904e-36, "scale": 0.6124684651692708, "original_dtype": "float32"}}, {"name": "expanded_conv_project_BN_2/moving_mean", "shape": [16], "dtype": "float32", "quantization": {"dtype": "uint8", "min": -4.333507335887235, "scale": 0.029280454972211052, "original_dtype": "float32"}}, {"name": "expanded_conv_project_BN_2/moving_variance", "shape": [16], "dtype": "float32", "quantization": {"dtype": "uint8", "min": 0.1539125293493271, "scale": 0.0020146795931984397, "original_dtype": "float32"}}, {"name": "block_1_expand_BN_2/moving_mean", "shape": [96], "dtype": "float32", "quantization": {"dtype": "uint8", "min": -0.05416359064333579, "scale": 0.0003684598002948013, "original_dtype": "float32"}}, {"name": "block_1_expand_BN_2/moving_variance", "shape": [96], "dtype": "float32", "quantization": {"dtype": "uint8", "min": 1.1824325323104858, "scale": 0.06318671890333587, "original_dtype": "float32"}}, {"name": "block_1_depthwise_BN_2/moving_mean", "shape": [96], "dtype": "float32", "quantization": {"dtype": "uint8", "min": -28.883257787367874, "scale": 0.2674375721052581, "original_dtype": "float32"}}, {"name": "block_1_depthwise_BN_2/moving_variance", "shape": [96], "dtype": "float32", "quantization": {"dtype": "uint8", "min": 0.24302777647972107, "scale": 1.1295133063606186, "original_dtype": "float32"}}, {"name": "block_1_project_BN_2/moving_mean", "shape": [24], "dtype": "float32", "quantization": {"dtype": "uint8", "min": -5.115701172398587, "scale": 0.03177454144346948, "original_dtype": "float32"}}, {"name": "block_1_project_BN_2/moving_variance", "shape": [24], "dtype": "float32", "quantization": {"dtype": "uint8", "min": 0.1385791301727295, "scale": 0.010445209577971813, "original_dtype": "float32"}}, {"name": "block_2_expand_BN_2/moving_mean", "shape": [144], "dtype": "float32", "quantization": {"dtype": "uint8", "min": -0.007767260419752667, "scale": 6.021132108335401e-05, "original_dtype": "float32"}}, {"name": "block_2_expand_BN_2/moving_variance", "shape": [144], "dtype": "float32", "quantization": {"dtype": "uint8", "min": 1.1391439099386612e-34, "scale": 0.08075111987544041, "original_dtype": "float32"}}, {"name": "block_2_depthwise_BN_2/moving_mean", "shape": [144], "dtype": "float32", "quantization": {"dtype": "uint8", "min": -11.528925846137254, "scale": 0.06036086830438352, "original_dtype": "float32"}}, {"name": "block_2_depthwise_BN_2/moving_variance", "shape": [144], "dtype": "float32", "quantization": {"dtype": "uint8", "min": 3.917904591177378e-36, "scale": 0.14620415182674631, "original_dtype": "float32"}}, {"name": "block_2_project_BN_2/moving_mean", "shape": [24], "dtype": "float32", "quantization": {"dtype": "uint8", "min": -4.412971945369945, "scale": 0.036774766211416204, "original_dtype": "float32"}}, {"name": "block_2_project_BN_2/moving_variance", "shape": [24], "dtype": "float32", "quantization": {"dtype": "uint8", "min": 0.4676990211009979, "scale": 0.0044211351404003065, "original_dtype": "float32"}}, {"name": "block_3_expand_BN_2/moving_mean", "shape": [144], "dtype": "float32", "quantization": {"dtype": "uint8", "min": -0.008961982477237196, "scale": 7.659814083108715e-05, "original_dtype": "float32"}}, {"name": "block_3_expand_BN_2/moving_variance", "shape": [144], "dtype": "float32", "quantization": {"dtype": "uint8", "min": 3.118011236190796, "scale": 0.13787010136772604, "original_dtype": "float32"}}, {"name": "block_3_depthwise_BN_2/moving_mean", "shape": [144], "dtype": "float32", "quantization": {"dtype": "uint8", "min": -28.79960771448472, "scale": 0.18701043970444622, "original_dtype": "float32"}}, {"name": "block_3_depthwise_BN_2/moving_variance", "shape": [144], "dtype": "float32", "quantization": {"dtype": "uint8", "min": 0.08270653337240219, "scale": 0.4277121297576848, "original_dtype": "float32"}}, {"name": "block_3_project_BN_2/moving_mean", "shape": [32], "dtype": "float32", "quantization": {"dtype": "uint8", "min": -3.1814714272816973, "scale": 0.03742907561507879, "original_dtype": "float32"}}, {"name": "block_3_project_BN_2/moving_variance", "shape": [32], "dtype": "float32", "quantization": {"dtype": "uint8", "min": 0.433729350566864, "scale": 0.025444299333235797, "original_dtype": "float32"}}, {"name": "block_4_expand_BN_2/moving_mean", "shape": [192], "dtype": "float32", "quantization": {"dtype": "uint8", "min": -0.0033023426784019845, "scale": 2.482964419851116e-05, "original_dtype": "float32"}}, {"name": "block_4_expand_BN_2/moving_variance", "shape": [192], "dtype": "float32", "quantization": {"dtype": "uint8", "min": 1.1886818408966064, "scale": 0.09537688143113081, "original_dtype": "float32"}}, {"name": "block_4_depthwise_BN_2/moving_mean", "shape": [192], "dtype": "float32", "quantization": {"dtype": "uint8", "min": -5.33426550322888, "scale": 0.04520563985787186, "original_dtype": "float32"}}, {"name": "block_4_depthwise_BN_2/moving_variance", "shape": [192], "dtype": "float32", "quantization": {"dtype": "uint8", "min": 0.0004822649934794754, "scale": 0.04857745566462422, "original_dtype": "float32"}}, {"name": "block_4_project_BN_2/moving_mean", "shape": [32], "dtype": "float32", "quantization": {"dtype": "uint8", "min": -2.8271050079196107, "scale": 0.019909190196616976, "original_dtype": "float32"}}, {"name": "block_4_project_BN_2/moving_variance", "shape": [32], "dtype": "float32", "quantization": {"dtype": "uint8", "min": 0.13950583338737488, "scale": 0.004481820148580214, "original_dtype": "float32"}}, {"name": "block_5_expand_BN_2/moving_mean", "shape": [192], "dtype": "float32", "quantization": {"dtype": "uint8", "min": -0.006973593873793588, "scale": 5.66958851527934e-05, "original_dtype": "float32"}}, {"name": "block_5_expand_BN_2/moving_variance", "shape": [192], "dtype": "float32", "quantization": {"dtype": "uint8", "min": 1.666830062866211, "scale": 0.0795028387331495, "original_dtype": "float32"}}, {"name": "block_5_depthwise_BN_2/moving_mean", "shape": [192], "dtype": "float32", "quantization": {"dtype": "uint8", "min": -18.637833322263234, "scale": 0.10470692877675973, "original_dtype": "float32"}}, {"name": "block_5_depthwise_BN_2/moving_variance", "shape": [192], "dtype": "float32", "quantization": {"dtype": "uint8", "min": 0.012165399268269539, "scale": 0.034781649175520034, "original_dtype": "float32"}}, {"name": "block_5_project_BN_2/moving_mean", "shape": [32], "dtype": "float32", "quantization": {"dtype": "uint8", "min": -1.9552518643584904, "scale": 0.017303113843880447, "original_dtype": "float32"}}, {"name": "block_5_project_BN_2/moving_variance", "shape": [32], "dtype": "float32", "quantization": {"dtype": "uint8", "min": 0.11508045345544815, "scale": 0.0025313079064967587, "original_dtype": "float32"}}, {"name": "block_6_expand_BN_2/moving_mean", "shape": [192], "dtype": "float32", "quantization": {"dtype": "uint8", "min": -0.01579483030181305, "scale": 0.00013385449408316144, "original_dtype": "float32"}}, {"name": "block_6_expand_BN_2/moving_variance", "shape": [192], "dtype": "float32", "quantization": {"dtype": "uint8", "min": 2.849652051925659, "scale": 0.1332679870081883, "original_dtype": "float32"}}, {"name": "block_6_depthwise_BN_2/moving_mean", "shape": [192], "dtype": "float32", "quantization": {"dtype": "uint8", "min": -16.134933172487745, "scale": 0.1260541654100605, "original_dtype": "float32"}}, {"name": "block_6_depthwise_BN_2/moving_variance", "shape": [192], "dtype": "float32", "quantization": {"dtype": "uint8", "min": 0.09068571031093597, "scale": 0.46417737901210787, "original_dtype": "float32"}}, {"name": "block_6_project_BN_2/moving_mean", "shape": [64], "dtype": "float32", "quantization": {"dtype": "uint8", "min": -6.115814747529871, "scale": 0.04247093574673522, "original_dtype": "float32"}}, {"name": "block_6_project_BN_2/moving_variance", "shape": [64], "dtype": "float32", "quantization": {"dtype": "uint8", "min": 0.1631668508052826, "scale": 0.03984195169280557, "original_dtype": "float32"}}, {"name": "block_7_expand_BN_2/moving_mean", "shape": [384], "dtype": "float32", "quantization": {"dtype": "uint8", "min": -0.002854518425267409, "scale": 2.053610377890222e-05, "original_dtype": "float32"}}, {"name": "block_7_expand_BN_2/moving_variance", "shape": [384], "dtype": "float32", "quantization": {"dtype": "uint8", "min": 0.8128920793533325, "scale": 0.028594435430040546, "original_dtype": "float32"}}, {"name": "block_7_depthwise_BN_2/moving_mean", "shape": [384], "dtype": "float32", "quantization": {"dtype": "uint8", "min": -22.093290452396168, "scale": 0.09690039672103583, "original_dtype": "float32"}}, {"name": "block_7_depthwise_BN_2/moving_variance", "shape": [384], "dtype": "float32", "quantization": {"dtype": "uint8", "min": 0.0003689236764330417, "scale": 0.03711605504162007, "original_dtype": "float32"}}, {"name": "block_7_project_BN_2/moving_mean", "shape": [64], "dtype": "float32", "quantization": {"dtype": "uint8", "min": -0.8993196249008178, "scale": 0.013626054922739664, "original_dtype": "float32"}}, {"name": "block_7_project_BN_2/moving_variance", "shape": [64], "dtype": "float32", "quantization": {"dtype": "uint8", "min": 0.12488693743944168, "scale": 0.01134792329633937, "original_dtype": "float32"}}, {"name": "block_8_expand_BN_2/moving_mean", "shape": [384], "dtype": "float32", "quantization": {"dtype": "uint8", "min": -0.005342113400133802, "scale": 3.8432470504559725e-05, "original_dtype": "float32"}}, {"name": "block_8_expand_BN_2/moving_variance", "shape": [384], "dtype": "float32", "quantization": {"dtype": "uint8", "min": 0.9274179935455322, "scale": 0.05242154644984825, "original_dtype": "float32"}}, {"name": "block_8_depthwise_BN_2/moving_mean", "shape": [384], "dtype": "float32", "quantization": {"dtype": "uint8", "min": -9.913028516021429, "scale": 0.04835623666351917, "original_dtype": "float32"}}, {"name": "block_8_depthwise_BN_2/moving_variance", "shape": [384], "dtype": "float32", "quantization": {"dtype": "uint8", "min": 0.0025061320047825575, "scale": 0.07012738295209904, "original_dtype": "float32"}}, {"name": "block_8_project_BN_2/moving_mean", "shape": [64], "dtype": "float32", "quantization": {"dtype": "uint8", "min": -1.1685880025227866, "scale": 0.008592558842079313, "original_dtype": "float32"}}, {"name": "block_8_project_BN_2/moving_variance", "shape": [64], "dtype": "float32", "quantization": {"dtype": "uint8", "min": 0.08841296285390854, "scale": 0.002193020050432168, "original_dtype": "float32"}}, {"name": "block_9_expand_BN_2/moving_mean", "shape": [384], "dtype": "float32", "quantization": {"dtype": "uint8", "min": -0.006281586488087972, "scale": 4.9074894438187284e-05, "original_dtype": "float32"}}, {"name": "block_9_expand_BN_2/moving_variance", "shape": [384], "dtype": "float32", "quantization": {"dtype": "uint8", "min": 1.2877579927444458, "scale": 0.054930959495843625, "original_dtype": "float32"}}, {"name": "block_9_depthwise_BN_2/moving_mean", "shape": [384], "dtype": "float32", "quantization": {"dtype": "uint8", "min": -4.788632411582797, "scale": 0.029928952572392482, "original_dtype": "float32"}}, {"name": "block_9_depthwise_BN_2/moving_variance", "shape": [384], "dtype": "float32", "quantization": {"dtype": "uint8", "min": 0.05547027662396431, "scale": 0.02295063504693555, "original_dtype": "float32"}}, {"name": "block_9_project_BN_2/moving_mean", "shape": [64], "dtype": "float32", "quantization": {"dtype": "uint8", "min": -1.7840417600145528, "scale": 0.011150261000090955, "original_dtype": "float32"}}, {"name": "block_9_project_BN_2/moving_variance", "shape": [64], "dtype": "float32", "quantization": {"dtype": "uint8", "min": 0.08395598083734512, "scale": 0.0012562766671180726, "original_dtype": "float32"}}, {"name": "block_10_expand_BN_2/moving_mean", "shape": [384], "dtype": "float32", "quantization": {"dtype": "uint8", "min": -0.016467917546191636, "scale": 0.000120203777709428, "original_dtype": "float32"}}, {"name": "block_10_expand_BN_2/moving_variance", "shape": [384], "dtype": "float32", "quantization": {"dtype": "uint8", "min": 2.4908287525177, "scale": 0.09938252299439673, "original_dtype": "float32"}}, {"name": "block_10_depthwise_BN_2/moving_mean", "shape": [384], "dtype": "float32", "quantization": {"dtype": "uint8", "min": -10.894231865452785, "scale": 0.06446291044646618, "original_dtype": "float32"}}, {"name": "block_10_depthwise_BN_2/moving_variance", "shape": [384], "dtype": "float32", "quantization": {"dtype": "uint8", "min": 0.18490919470787048, "scale": 0.09812037395495994, "original_dtype": "float32"}}, {"name": "block_10_project_BN_2/moving_mean", "shape": [96], "dtype": "float32", "quantization": {"dtype": "uint8", "min": -4.48247532564051, "scale": 0.03049302942612592, "original_dtype": "float32"}}, {"name": "block_10_project_BN_2/moving_variance", "shape": [96], "dtype": "float32", "quantization": {"dtype": "uint8", "min": 0.4126780033111572, "scale": 0.019708009794646618, "original_dtype": "float32"}}, {"name": "block_11_expand_BN_2/moving_mean", "shape": [576], "dtype": "float32", "quantization": {"dtype": "uint8", "min": -0.0033991185007799488, "scale": 2.5557281960751496e-05, "original_dtype": "float32"}}, {"name": "block_11_expand_BN_2/moving_variance", "shape": [576], "dtype": "float32", "quantization": {"dtype": "uint8", "min": 0.018170446157455444, "scale": 0.028893045934976314, "original_dtype": "float32"}}, {"name": "block_11_depthwise_BN_2/moving_mean", "shape": [576], "dtype": "float32", "quantization": {"dtype": "uint8", "min": -7.283719889322917, "scale": 0.04234720865885417, "original_dtype": "float32"}}, {"name": "block_11_depthwise_BN_2/moving_variance", "shape": [576], "dtype": "float32", "quantization": {"dtype": "uint8", "min": 1.8502187231206335e-05, "scale": 0.052505233611501514, "original_dtype": "float32"}}, {"name": "block_11_project_BN_2/moving_mean", "shape": [96], "dtype": "float32", "quantization": {"dtype": "uint8", "min": -2.1536190135806215, "scale": 0.01722895210864497, "original_dtype": "float32"}}, {"name": "block_11_project_BN_2/moving_variance", "shape": [96], "dtype": "float32", "quantization": {"dtype": "uint8", "min": 0.10844283550977707, "scale": 0.0009170795480410258, "original_dtype": "float32"}}, {"name": "block_12_expand_BN_2/moving_mean", "shape": [576], "dtype": "float32", "quantization": {"dtype": "uint8", "min": -0.004831604148242988, "scale": 4.0945797866466e-05, "original_dtype": "float32"}}, {"name": "block_12_expand_BN_2/moving_variance", "shape": [576], "dtype": "float32", "quantization": {"dtype": "uint8", "min": 0.9038527011871338, "scale": 0.03766474536820954, "original_dtype": "float32"}}, {"name": "block_12_depthwise_BN_2/moving_mean", "shape": [576], "dtype": "float32", "quantization": {"dtype": "uint8", "min": -11.240864203957951, "scale": 0.0573513479793773, "original_dtype": "float32"}}, {"name": "block_12_depthwise_BN_2/moving_variance", "shape": [576], "dtype": "float32", "quantization": {"dtype": "uint8", "min": 6.388200745277572e-06, "scale": 0.03496228873116742, "original_dtype": "float32"}}, {"name": "block_12_project_BN_2/moving_mean", "shape": [96], "dtype": "float32", "quantization": {"dtype": "uint8", "min": -2.006638917268491, "scale": 0.013838889084610284, "original_dtype": "float32"}}, {"name": "block_12_project_BN_2/moving_variance", "shape": [96], "dtype": "float32", "quantization": {"dtype": "uint8", "min": 0.07206068933010101, "scale": 0.001115306861260358, "original_dtype": "float32"}}, {"name": "block_13_expand_BN_2/moving_mean", "shape": [576], "dtype": "float32", "quantization": {"dtype": "uint8", "min": -0.010997339425718082, "scale": 7.855242446941487e-05, "original_dtype": "float32"}}, {"name": "block_13_expand_BN_2/moving_variance", "shape": [576], "dtype": "float32", "quantization": {"dtype": "uint8", "min": 0.9088941216468811, "scale": 0.05900706286523856, "original_dtype": "float32"}}, {"name": "block_13_depthwise_BN_2/moving_mean", "shape": [576], "dtype": "float32", "quantization": {"dtype": "uint8", "min": -8.386353189804975, "scale": 0.048197432125315944, "original_dtype": "float32"}}, {"name": "block_13_depthwise_BN_2/moving_variance", "shape": [576], "dtype": "float32", "quantization": {"dtype": "uint8", "min": 0.030572228133678436, "scale": 0.07543893213949951, "original_dtype": "float32"}}, {"name": "block_13_project_BN_2/moving_mean", "shape": [160], "dtype": "float32", "quantization": {"dtype": "uint8", "min": -4.755852970422484, "scale": 0.03804682376337987, "original_dtype": "float32"}}, {"name": "block_13_project_BN_2/moving_variance", "shape": [160], "dtype": "float32", "quantization": {"dtype": "uint8", "min": 0.1887691169977188, "scale": 0.00866941558379753, "original_dtype": "float32"}}, {"name": "block_14_expand_BN_2/moving_mean", "shape": [960], "dtype": "float32", "quantization": {"dtype": "uint8", "min": -0.0035475831040564705, "scale": 2.956319253380392e-05, "original_dtype": "float32"}}, {"name": "block_14_expand_BN_2/moving_variance", "shape": [960], "dtype": "float32", "quantization": {"dtype": "uint8", "min": 0.576975405216217, "scale": 0.02809396795198029, "original_dtype": "float32"}}, {"name": "block_14_depthwise_BN_2/moving_mean", "shape": [960], "dtype": "float32", "quantization": {"dtype": "uint8", "min": -5.60829584458295, "scale": 0.04919557758406097, "original_dtype": "float32"}}, {"name": "block_14_depthwise_BN_2/moving_variance", "shape": [960], "dtype": "float32", "quantization": {"dtype": "uint8", "min": 3.256000127294101e-05, "scale": 0.09058261893165478, "original_dtype": "float32"}}, {"name": "block_14_project_BN_2/moving_mean", "shape": [160], "dtype": "float32", "quantization": {"dtype": "uint8", "min": -2.1547662781734096, "scale": 0.016080345359503055, "original_dtype": "float32"}}, {"name": "block_14_project_BN_2/moving_variance", "shape": [160], "dtype": "float32", "quantization": {"dtype": "uint8", "min": 0.15868082642555237, "scale": 0.0027608825879938464, "original_dtype": "float32"}}, {"name": "block_15_expand_BN_2/moving_mean", "shape": [960], "dtype": "float32", "quantization": {"dtype": "uint8", "min": -0.005710337237984526, "scale": 4.922704515503902e-05, "original_dtype": "float32"}}, {"name": "block_15_expand_BN_2/moving_variance", "shape": [960], "dtype": "float32", "quantization": {"dtype": "uint8", "min": 0.7611753940582275, "scale": 0.044346860810822133, "original_dtype": "float32"}}, {"name": "block_15_depthwise_BN_2/moving_mean", "shape": [960], "dtype": "float32", "quantization": {"dtype": "uint8", "min": -16.225884665694892, "scale": 0.09893832113228593, "original_dtype": "float32"}}, {"name": "block_15_depthwise_BN_2/moving_variance", "shape": [960], "dtype": "float32", "quantization": {"dtype": "uint8", "min": 9.185966405311774e-07, "scale": 0.07970216428263649, "original_dtype": "float32"}}, {"name": "block_15_project_BN_2/moving_mean", "shape": [160], "dtype": "float32", "quantization": {"dtype": "uint8", "min": -2.5247923271328796, "scale": 0.014594175301346124, "original_dtype": "float32"}}, {"name": "block_15_project_BN_2/moving_variance", "shape": [160], "dtype": "float32", "quantization": {"dtype": "uint8", "min": 0.04484359920024872, "scale": 0.0013148470836527207, "original_dtype": "float32"}}, {"name": "block_16_expand_BN_2/moving_mean", "shape": [960], "dtype": "float32", "quantization": {"dtype": "uint8", "min": -0.007378561703451708, "scale": 7.529144595358886e-05, "original_dtype": "float32"}}, {"name": "block_16_expand_BN_2/moving_variance", "shape": [960], "dtype": "float32", "quantization": {"dtype": "uint8", "min": 0.9427801966667175, "scale": 0.1991477043020959, "original_dtype": "float32"}}, {"name": "block_16_depthwise_BN_2/moving_mean", "shape": [960], "dtype": "float32", "quantization": {"dtype": "uint8", "min": -5.512674346624637, "scale": 0.03511257545620788, "original_dtype": "float32"}}, {"name": "block_16_depthwise_BN_2/moving_variance", "shape": [960], "dtype": "float32", "quantization": {"dtype": "uint8", "min": 1.026421827532431e-07, "scale": 0.2206087893780423, "original_dtype": "float32"}}, {"name": "block_16_project_BN_2/moving_mean", "shape": [320], "dtype": "float32", "quantization": {"dtype": "uint8", "min": -8.646985655204922, "scale": 0.047773401409971945, "original_dtype": "float32"}}, {"name": "block_16_project_BN_2/moving_variance", "shape": [320], "dtype": "float32", "quantization": {"dtype": "uint8", "min": 0.22435307502746582, "scale": 0.0218168342814726, "original_dtype": "float32"}}, {"name": "Conv_1_bn_2/moving_mean", "shape": [1280], "dtype": "float32", "quantization": {"dtype": "uint8", "min": -0.0023339064243961785, "scale": 1.7288195736267988e-05, "original_dtype": "float32"}}, {"name": "Conv_1_bn_2/moving_variance", "shape": [1280], "dtype": "float32", "quantization": {"dtype": "uint8", "min": 0.5854629874229431, "scale": 0.021136328987046784, "original_dtype": "float32"}}]}]}